pytorch部署/pytorch/torch.onnx (onnx, 309071 bytes, 12 tensors)

conv1.bias f4 [6]
-1.0232742 -0.4819158 -0.5626886 0.36916584 -0.0324543 -0.79590034
00000000: a6fa 82bf abbd f6be 5c0c 10bf 4e03 bd3e
00000010: cdee 04bd 20c0 4bbf

conv1.weight f4 [6, 3, 3, 3]
2.4532766 1.1812758 0.90418375 1.2340873 -0.8536162 -0.09903226 -0.76908433 -1.9879853
-0.40985107 -1.1557894 -1.8174726 -1.5204383 -0.86350137 -0.67485416 0.6967338 -1.1231403
-0.37525412 1.3026177 -0.061435692 -0.027953306 -0.17162172 0.036604293 -0.4463653 0.3250329
-0.21397378 0.7717527 1.1429867 -1.0350838 -1.9760271 -0.75214404 -0.0129454015 0.62260234
0.6119854 1.6671139 1.5043247 0.68261874 0.15792297 -1.9350433 0.12432414 -0.9292768
0.32924452 0.23385662 0.0022020412 0.5936063 -0.7850076 0.42504773 -0.7147446 0.6141658
-1.6080418 0.37548283 0.73556846 0.9437554 0.17698546 -0.3277322 0.7218597 -0.8116331
-0.04796977 1.8112679 -0.64116365 -1.3825976 0.67109305 -0.59649974 0.22020358 1.4074751
-1.4408691 -0.369291 1.8011384 -1.7311381 -0.8953925 0.76889193 -0.61783886 0.36479896
0.6126284 -0.48997197 -0.6639667 1.7479427 -0.38741735 -0.29578018 -0.06451862 -0.6302997
-0.009734087 0.6699703 -0.38675973 0.68062633 -1.171934 -1.6840783 -0.7607074 -1.1260481
-1.0444136 0.94379157 -1.5154879 -0.50728863 -0.72065574 0.1035985 1.2476435 0.16324474
0.061187964 0.17542838 -0.8908145 1.1426834 0.27653208 -0.8467425 1.6233432 1.5546151
1.4380269 1.4113532 0.5008439 -0.6022961 0.622463 -0.102961615 -1.1712604 0.07636094
0.15786889 0.24966042 0.77268016 0.54148304 0.6765897 -0.40225273 0.14324014 -0.06527333
-0.86442053 0.7351149 0.36157665 -1.2472507 -0.514018 0.06681442 0.5801361 0.5506628
-0.2736071 0.06344542 1.1182958 -0.013586166 -0.32664916 0.13663591 0.5077336 -0.10633399
0.29931018 -1.0290042 0.7290527 1.9992937 0.38424408 -1.2463374 -2.0853481 0.094119504
-0.23990904 1.6096512 0.035998076 0.9676847 2.082574 1.1325542 -0.8883618 -3.453942
-0.46418646 -0.61581624 -1.1032367 -0.77563924 0.9826979 1.4610652 0.06068851 0.87614286
-1.4289508 0.1898073
00000000: 7c02 1d40 0c34 973f 9678 673f 93f6 9d3f
00000010: 9786 5abf 6dd1 cabd b6e2 44bf 4d76 febf
00000020: 00d8 d1be e8f0 93bf f1a2 e8bf b99d c2bf
00000030: 6d0e 5dbf 3ec3 2cbf 255d 323f 10c3 8fbf
00000040: 4f21 c0be 2dbc a63f fea3 7bbd 55fe e4bc
00000050: 9bbd 2fbe 62ee 153d fe89 e4be b66a a63e
00000060: f11b 5bbe 9691 453f 634d 923f a07d 84bf
00000070: 75ee fcbf 838c 40bf f318 54bc de62 1f3f
00000080: 13ab 1c3f fd63 d53f b68d c03f 1ac0 2e3f
00000090: 8fb6 213e 80af f7bf a89d fe3d 16e5 6dbf
000000a0: bd92 a83e 1c78 6f3e 1f50 103b 95f6 173f
000000b0: 42f6 48bf db9f d93e 81f9 36bf f839 1d3f
000000c0: 50d4 cdbf 493f c03e 374e 3c3f f499 713f
000000d0: ad3b 353e 84cc a7be cccb 383f 30c7 4fbf
000000e0: f37b 44bd a0d7 e73f 4d23 24bf f5f8 b0bf
000000f0: c1cc 2b3f 35b4 18bf 0c7d 613e 2528 b43f
00000100: 666e b8bf b613 bdbe b48b e63f ef95 ddbf
00000110: 7138 65bf 1ad6 443f b02a 1ebf eec6 ba3e
00000120: 37d5 1c3f 9bdd fabe b9f9 29bf 96bc df3f
00000130: 915b c6be 8070 97be 5722 84bd 525b 21bf
00000140: b87b 1fbc 2c83 2b3f 5f05 c6be 873d 2e3f
00000150: ef01 96bf e18f d7bf b8bd 42bf 5822 90bf
00000160: 58af 85bf 539c 713f 82fb c1bf abdd 01bf
00000170: e57c 38bf 732b d43d c8b2 9f3f a129 273e
00000180: 3ba0 7a3d 7fa3 333e 6b0c 64bf 7343 923f
00000190: 9d95 8d3e 1ec4 58bf b6c9 cf3f a1fd c63f
000001a0: 4411 b83f 39a7 b43f 4e37 003f 1430 1abf
000001b0: bc59 1f3f 8add d2bd dceb 95bf 2063 9c3d
000001c0: 62a8 213e fba6 7f3e 5ece 453f a29e 0a3f
000001d0: fc34 2d3f 12f4 cdbe 8bad 123e 06ae 85bd
000001e0: aa4a 5dbf 7d30 3c3f 9320 b93e e9a5 9fbf
000001f0: af96 03bf 00d6 883d cd83 143f 3df8 0c3f
00000200: 3b16 8cbe acef 813d 5124 8f3f 8398 5ebc
00000210: 8f3e a7be 49ea 0b3e d4fa 013f a3c5 d9bd
00000220: 2f3f 993e 69b6 83bf 33a3 3a3f dbe8 ff3f
00000230: a4bb c43e fc87 9fbf 5876 05c0 bac1 c03d
00000240: b7aa 75be 0d09 ce3f b872 133d 2fba 773f
00000250: e448 0540 89f7 903f ae6b 63bf 630d 5dc0
00000260: d9a9 edbe 22a6 1dbf dc36 8dbf 4b90 46bf
00000270: 1792 7b3f 2f04 bb3f 8494 783d e64a 603f
00000280: dce7 b6bf d85c 423e

conv2.bias f4 [12]
-0.003570082 -3.6358871 -0.8742474 2.5680318 -0.6501525 0.07643111 4.547573 -0.8336577
-2.250957 -0.58051795 -0.07741489 0.673588
00000000: 09f8 69bb 60b2 68c0 adce 5fbf a25a 2440
00000010: 6570 26bf ea87 9c3d b885 9140 976a 55bf
00000020: ae0f 10c0 d39c 14bf b38b 9ebd 4370 2c3f

conv2.weight f4 [12, 6, 3, 3]
-0.7579432 1.5104455 -0.5061328 0.64044905 0.6857648 -1.3276739 0.78296274 -0.8943947
-0.07329583 -0.13566941 -1.340508 1.3991828 -1.6531943 1.7383004 -0.5735375 0.39212063
0.0060316697 -0.47145873 -0.38393724 0.6376694 -0.84040695 0.6846085 -0.2841396 0.3306789
0.35075298 0.23305112 0.19777721 -0.67718583 -0.7709013 0.22299233 -0.8181521 -0.49301025
0.94724405 -1.0120798 -0.010299602 0.52983224 -0.38048387 -0.818121 0.7846395 -0.74655664
0.0820719 0.2002275 -0.600357 0.09087255 0.6086013 -0.40999883 0.21591057 -0.8545609
0.40504187 -0.95696187 0.2355797 -0.09074174 -0.48003358 0.10421007 0.39031544 -0.012034751
-0.2604015 0.122881524 0.18886101 -0.13340995 -0.18797195 -0.48599717 0.294347 -0.6627151
-0.855811 -0.49939197 0.071272425 -1.0549521 -1.3143574 1.4185704 1.2803106 0.5063025
1.0460013 0.18880992 0.1073239 0.78742784 -0.19384302 0.66404957 -0.18225865 -0.2684888
-0.58823854 0.26866964 -0.03312223 1.0680485 -0.85632026 -0.62949854 0.31358552 0.30230296
0.40809107 -0.20699543 0.45351338 -0.09817572 -0.014693366 -0.61058927 -0.67631197 -1.0796803
0.26765445 0.0084974915 -0.08245367 -0.58327127 -0.39995867 -0.16542192 0.010207267 -0.036878265
0.3889787 0.17391409 0.11817985 -0.55460584 0.9096394 -0.5865124 -0.9339311 0.77349854
-0.34994566 -1.0170763 1.2467369 0.4115962 -0.7690589 -0.43153545 0.027097445 0.14229701
-0.47160137 -1.1935567 -0.36029938 0.6329556 -0.29786816 -1.1517862 -0.6505772 0.2937583
1.0529482 -0.84148484 -0.51634634 -0.062037338 -0.46709695 0.12772271 0.36522233 -0.5078225
0.4978281 -0.028828487 -0.43075496 -0.80474144 1.2131642 -0.70538795 0.41879907 0.074679784
0.038485955 1.3397404 -0.13260856 -1.2609055 0.7477619 0.5163024 -1.1511875 0.000470252
0.5965166 0.35494524 -0.85271764 -1.4897635 -0.5660073 -1.2102814 -0.26574793 -0.0611584
-0.033572905 -0.31013477 0.39513052 0.11387655 0.23193958 -0.75245345 -0.9842534 -0.581356
-0.6415839 -0.45690578 -0.22772902 1.043139 -0.750891 0.6362188 -0.9778153 0.39535666
0.265624 0.13316314 -0.051968563 0.16067755 -0.45395285 0.34161538 0.14356112 -0.12872961
-0.8089738 -0.010745951 0.20615925 0.008474934 0.7694159 0.32495707 0.0698284 0.49486735
-2.1155446 -1.5828491 -1.3842096 -2.3001008 -1.987787 -1.3623428 -0.34099317 -0.2906014
-0.59597504 -0.7282371 -1.1191945 0.24565469 0.19685583 -0.018723426 0.36861444 -0.57754105
0.65987265 -0.4585917 0.6160942 -1.2648765 0.364414 -0.1029171 0.8933445 0.09574317
-0.39429826 -0.19413947 -1.5655643 -0.9340693 -0.11774722 0.13547403 -0.4388794 0.22595325
0.9793287 -0.07570849 0.86261815 0.12678319 0.9947027 0.58407474 0.2704277 0.040252637
-0.82469183 0.03544329 0.3170273 0.14221096 -0.7502959 -0.6890943 -1.7183889 -0.6473493
-0.89093226 0.14772241 0.1036435 0.09721112 0.5891268 0.65057236 -0.22893815 0.37847903
-0.14735171 0.0153787965 -0.18224306 -0.36806676 0.33893007 0.5768435 0.5045096 0.53990465
00000000: 9108 42bf 4756 c13f eb91 01bf 78f4 233f
00000010: 488e 2f3f 38f1 a9bf 3f70 483f 0df7 64bf
00000020: 201c 96bd ecec 0abe c495 abbf 6c18 b33f
00000030: df9b d3bf a180 de3f 5bd3 12bf 09c4 c83e
00000040: 50a5 c53b 0a63 f1be 6c93 c4be 4d3e 233f
00000050: e924 57bf 8142 2f3f bf7a 91be bf4e a93e
00000060: e595 b33e f4a4 6e3e 1c86 4a3e 0d5c 2dbf
00000070: ca59 45bf 1a58 643e 6b72 51bf d76b fcbe
00000080: 967e 723f d58b 81bf a9bf 28bc 16a3 073f
00000090: c8ce c2be 6170 51bf 22de 483f 561e 3fbf
000000a0: 5015 a83d 7008 4d3e ffb0 19bf 631b ba3d
000000b0: 4bcd 1b3f 5eeb d1be a917 5d3e 81c4 5abf
000000c0: a661 cf3e 74fb 74bf ce3b 713e ced6 b9bd
000000d0: f6c6 f5be 176c d53d 6dd7 c73e 672d 45bc
000000e0: 5853 85be 4fa9 fb3d c864 413e 9e9c 08be
000000f0: b87b 40be 9fd4 f8be a6b4 963e b2a7 29bf
00000100: 6e16 5bbf 4eb0 ffbe 47f7 913d ac08 87bf
00000110: dd3c a8bf b793 b53f 38e1 a33f 0a9d 013f
00000120: 5fe3 853f 6357 413e a2cc db3d df94 493f
00000130: c97e 46be 27ff 293f 03a2 3abe 5d77 89be
00000140: cd96 16bf 118f 893e 2dab 07bd d0b5 883f
00000150: ce37 5bbf d126 21bf 488e a03e 74c7 9a3e
00000160: 50f1 d03e 9cf6 53be e832 e83e 5a10 c9bd
00000170: 72bc 70bc 944f 1cbf c822 2dbf f732 8abf
00000180: 010a 893e 1039 0b3c 78dd a8bd 4451 15bf
00000190: 62c7 ccbe 5d64 29be 613c 273c aa0d 17bd
000001a0: 3728 c73e 8916 323e 4708 f23d a6fa 0dbf
000001b0: 21de 683f ad25 16bf 1c16 6fbf 0004 463f
000001c0: 142c b3be 8e2f 82bf 1395 9f3f bdbc d23e
000001d0: 0be1 44bf 37f2 dcbe 76fb dd3c 4fb6 113e
000001e0: bc75 f1be 77c6 98bf 2979 b8be 6109 223f
000001f0: 2d82 98be bb6d 93bf 3a8c 26bf 7d67 963e
00000200: 02c7 863f 8d6b 57bf 462f 04bf dd1a 7ebd
00000210: 5527 efbe bec9 023e 6cfe ba3e a800 02bf
00000220: 53e3 fe3e b829 ecbc ea8b dcbe 8903 4ebf
00000230: f748 9b3f 4e94 34bf d56c d63e b7f1 983d
00000240: 73a3 1d3d 9d7c ab3f 8aca 07be 5a65 a1bf
00000250: 536d 3f3f 652c 043f 1d5a 93bf 288c f639
00000260: 50b5 183f 62bb b53e b44b 5abf 92b0 bebf
00000270: dbe5 10bf 80ea 9abf 1d10 88be 3b81 7abd
00000280: be83 09bd fcc9 9ebe 8c4e ca3e 1c38 e93d
00000290: 9281 6d3e caa0 40bf 08f8 7bbf bfd3 14bf
000002a0: d83e 24bf 8eef e9be cc31 69be 9485 853f
000002b0: 643a 40bf 3cdf 223f 1a52 7abf 306c ca3e
000002c0: deff 873e eb5b 083e fddc 54bd a888 243e
000002d0: 826c e8be 36e8 ae3e b001 133e b2d1 03be
000002e0: e818 4fbf c90f 30bc 691b 533e 73da 0a3c
000002f0: 71f8 443f c660 a63e 3102 8f3d 415f fd3e
00000300: 1565 07c0 cd9a cabf c82d b1bf da34 13c0
00000310: ce6f febf 4061 aebf a896 aebe b5c9 94be
00000320: d291 18bf bf6d 3abf c441 8fbf e78c 7b3e
00000330: 9394 493e df61 99bc 08bb bc3e bbd9 13bf
00000340: 6aed 283f 88cc eabe 59b8 1d3f 79e7 a1bf
00000350: 7994 ba3e 33c6 d2bd 3ab2 643f ff14 c43d
00000360: 76e1 c9be 7fcc 46be 6964 c8bf 2a1f 6fbf
00000370: 7425 f1bd b4b9 0a3e cdb4 e0be 4a60 673e
00000380: 49b5 7a3f 0e0d 9bbd 8bd4 5c3f 74d3 013e
00000390: d6a4 7e3f ec85 153f 8075 8a3e f3df 243d
000003a0: 011f 53bf fc2c 113d 6751 a23e c09f 113e
000003b0: 6413 40bf 7c68 30bf 2bf4 dbbf afb8 25bf
000003c0: 2314 64bf 8b44 173e 0b43 d43d a016 c73d
000003d0: 04d1 163f e98b 263f c36e 6abe 01c8 c13e
000003e0: 5ee3 16be 59f7 7b3c ed9d 3abe 3f73 bcbe
000003f0: 3e88 ad3e 04ac 133f 8b27 013f 3137 0a3f

conv3.bias f4 [32]
1.2660153 1.7183521 -1.0097144 1.7264272 0.47758493 0.9843461 2.5886157 2.7533934
-0.19983496 -0.9266954 -2.296326 0.5394017 0.9386703 -0.9543072 3.0441487 -0.47131804
1.7635132 -0.6663524 2.687733 -1.427291 0.38634494 -3.0277267 -0.7523418 0.8120605
0.24930897 -0.18249686 0.021747196 0.72892207 -2.6683602 -1.2070898 1.9365581 -1.7851778
00000000: ca0c a23f f6f2 db3f 523e 81bf 91fb dc3f
00000010: 0386 f43e 1bfe 7b3f e1ab 2540 9937 3040
00000020: 89a1 4cbe e93b 6dbf 01f7 12c0 3b16 0a3f
00000030: b24c 703f 7a4d 74bf 55d3 4240 9950 f1be
00000040: cdba e13f 1296 2abf d103 2c40 79b1 b6bf
00000050: 01cf c53e 46c6 41c0 7999 40bf 32e3 4f3f
00000060: da4a 7f3e 75e0 3abe 2d27 b23c a39a 3a3f
00000070: 6ac6 2ac0 eb81 9abf 23e1 f73f b580 e4bf

conv3.weight f4 [32, 12, 3, 3]
0.7915058 0.37048098 0.29936594 0.31568843 0.02385096 0.2191597 -1.1671188 -0.84381676
-0.64512134 0.063410446 -0.15823354 -0.43181372 0.6181226 0.5069763 0.030353578 -0.23600584
-0.11070151 -0.27879187 0.62189496 -0.7529148 -0.42012352 -0.957498 -0.17763953 0.7488701
-0.5019437 -0.34475467 -1.7826039 -0.5281221 -0.23199435 -0.005050143 0.47475076 -0.12800069
-0.30917382 0.11589325 0.51867074 0.54060596 0.11764687 -0.45860365 -0.09994085 0.23753412
-0.38167617 0.8907015 0.11001909 0.41897708 0.45282608 -0.28725627 0.20615514 -0.3727285
0.014770246 -0.46723428 0.4629404 -0.08988755 0.24129471 0.6654021 -1.9282227 -0.7488053
-0.88210267 -0.96642417 -0.27828768 -0.13906825 1.6502246 0.55036116 1.1307983 0.030679995
0.08058785 0.06004784 0.22503716 0.22671431 -0.28229773 -0.3439264 -0.45852703 -0.5482323
0.082708746 0.039120432 0.40846032 -0.15989375 0.5673901 0.11737283 -0.8592439 -0.93162185
-0.1480352 0.79752296 -0.00313487 0.2115474 -0.31272304 0.22590192 -0.33753675 -2.0570548
-2.1979768 -2.2532108 0.13645422 -0.46805337 0.15209393 -0.1008059 0.35387394 0.20223835
0.34025964 0.4490844 0.10692837 -0.33901066 0.19075878 0.049838804 0.23163655 -0.4644334
-0.013462174 -0.13405669 0.3721284 -0.12816055 0.6309223 -0.3204041 0.15930963 -0.48043132
1.1103106 0.35700515 0.80597883 -0.5370028 0.48762238 -0.52933705 -0.26499873 -0.84661597
-1.1570215 -0.3639858 -0.07145802 -0.22901714 0.037351545 -0.6242725 -1.3151258 -0.5404888
0.05747451 -0.38053563 -1.0717186 -1.0840957 -0.016124677 0.32330304 -0.8166829 0.07195068
0.6073454 0.26486427 0.55011886 0.61148703 -0.115916125 0.503869 -0.031891074 0.006570484
-0.5827539 0.24554706 -0.056749772 0.17845473 0.15271749 0.7685555 -0.8622337 0.6700859
0.35304877 -0.39631018 0.139414 -0.72217774 0.5518445 0.204512 0.00030415202 -0.65300983
-0.6649418 0.7739051 0.020611184 -0.11192533 -0.40541553 0.7690913 -0.71236354 -0.6926989
-0.4544474 -0.45746818 0.56647897 -0.4978339 -0.27503416 0.16902319 -0.77109206 0.01264263
-0.40669322 0.14596969 0.6071995 -0.6165255 0.048903212 0.5062029 -0.8109546 -0.17332843
0.21686989 1.7061577 0.26409522 0.15584789 0.5273064 -1.1327093 -0.74781126 -0.91204274
-0.15327957 -0.6484994 -0.839547 0.009107378 0.22200792 -0.40540907 -0.7991588 -0.120941594
-0.28594208 -0.4978144 -0.053092256 -0.09671245 -0.2942593 -0.0496144 -0.3572383 0.050971705
0.3107481 0.1226446 -0.09858118 0.0152418995 0.21754032 -0.10321029 0.3346424 -0.06017523
0.24320301 -0.3650711 0.81258607 0.21951374 -0.42044577 0.551254 -0.4006166 -0.28674456
-1.407282 -0.17762291 -0.28564727 0.40284625 0.038549345 0.12218124 -0.3627289 -0.017707001
0.14743458 -1.2665588 -0.52529633 -0.6767043 0.3903496 0.98434985 0.2919398 0.22387439
-0.33268127 0.68441963 0.40090042 0.23904128 -0.105552666 0.3394694 -0.14561345 -0.4131741
-0.25241 -0.43251902 0.011167393 -0.16817081 -0.38484868 0.42765337 -0.09454008 -0.48633632
00000000: 20a0 4a3f afaf bd3e 7e46 993e eaa1 a13e
00000010: 1763 c33c 676b 603e 2664 95bf 6004 58bf
00000020: ac26 25bf 56dd 813d f907 22be b016 ddbe
00000030: 483d 1e3f 33c9 013f 11a8 f83c 84ab 71be
00000040: 79b7 e2bd cfbd 8ebe 8234 1f3f 06bf 40bf
00000050: 6e1a d7be 971e 75bf 23e7 35be f3b5 3f3f
00000060: 627f 00bf af83 b0be 5d2c e4bf 0333 07bf
00000070: ed8f 6dbe ac7b a5bb 8812 f33e 9d12 03be
00000080: 084c 9ebe 7159 ed3d 9bc7 043f 2765 0a3f
00000090: d8f0 f03d 19ce eabe caad ccbd 253c 733e
000000a0: 0f6b c3be 0305 643f b051 e13d 2a84 d63e
000000b0: d2d8 e73e 4113 93be 551a 533e 45d6 bebe
000000c0: e7fe 713c 5539 efbe 8606 ed3e f716 b8bd
000000d0: f615 773e cb57 2a3f 00d0 f6bf b4b1 3fbf
000000e0: 7bd1 61bf 9367 77bf b97b 8ebe e867 0ebe
000000f0: 8f3a d33f 78e4 0c3f 00be 903f 9d54 fb3c
00000100: 3e0b a53d b9f4 753d 2470 663e cc27 683e
00000110: 5489 90be 1f17 b0be 0ec4 eabe f458 0cbf
00000120: 3463 a93d bf3c 203d b621 d13e 30bb 23be
00000130: 7a40 113f 2b61 f03d 69f7 5bbf c57e 6ebf
00000140: 8a96 17be 772a 4c3f 6472 4dbb e29f 583e
00000150: 3c1d a0be d552 673e 9ed1 acbe c9a6 03c0
00000160: a7ab 0cc0 9b34 10c0 a8ba 0b3e b1a4 efbe
00000170: 83be 1b3e 5373 cebd f72e b53e 9217 4f3e
00000180: 8336 ae3e 64ee e53e 43fd da3d ce92 adbe
00000190: 4556 433e c623 4c3d 2232 6d3e 37ca edbe
000001a0: 7390 5cbc 2846 09be 9d87 be3e 853c 03be
000001b0: 2084 213f 020c a4be 1022 233e 18fb f5be
000001c0: a81e 8e3f 61c9 b63e a154 4e3f 0479 09bf
000001d0: a4a9 f93e a282 07bf eaad 87be d3bb 58bf
000001e0: 4819 94bf 595c babe 9558 92bd 7883 6abe
000001f0: effd 183d 53d0 1fbf 0b56 a8bf 795d 0abf
00000200: 646a 6b3d 91d5 c2be 132e 89bf a6c3 8abf
00000210: e617 84bc fa87 a53e 2112 51bf e15a 933d
00000220: fd7a 1b3f 4a9c 873e 97d4 0c3f 6a8a 1c3f
00000230: 6f65 edbd 8ffd 003f 37a0 02bd 374d d73b
00000240: 5c2f 15bf b070 7b3e 7372 68bd d6bc 363e
00000250: f961 1c3e 0ec0 443f 59bb 5cbf c08a 2b3f
00000260: cfc2 b43e 2be9 cabe 8bc2 0e3e a4e0 38bf
00000270: ae45 0d3f 986b 513e 9876 9f39 a72b 27bf
00000280: a039 2abf a51e 463f c9d8 a83c 1b39 e5bd
00000290: a092 cfbe 2be3 443f 755d 36bf b754 31bf
000002a0: 54ad e8be 4539 eabe c404 113f 16e4 febe
000002b0: 47d1 8cbe 6a14 2d3e 4a66 45bf 0923 4f3c
000002c0: 183a d0be 1479 153e 6d71 1b3f 9dd4 1dbf
000002d0: bc4e 483d 8396 013f b89a 4fbf 027d 31be
000002e0: 2413 5e3e 6063 da3f 7d37 873e 9796 1f3e
000002f0: 8dfd 063f 9efc 90bf 8f70 3fbf a27b 69bf
00000300: 52f5 1cbe 0f04 26bf 8dec 56bf 1d37 153c
00000310: 0b56 633e c791 cfbe ac95 4cbf 3ab0 f7bd
00000320: 0067 92be 87e1 febe 4477 59bd 2d11 c6bd
00000330: 28a9 96be 7838 4bbd f0e7 b6be b5c7 503d
00000340: 601a 9f3e 182d fb3d eee4 c9bd 29b9 793c
00000350: e4c2 5e3e eb5f d3bd 4056 ab3e 4d7a 76bd
00000360: 360a 793e 99ea babe a405 503f 36c8 603e
00000370: ab44 d7be fb1e 0d3f 9e1d cdbe 2fd0 92be
00000380: d121 b4bf c8e2 35be 5c40 92be dd41 ce3e
00000390: ebe5 1d3d 283a fa3d 9ab7 b9be 460e 91bc
000003a0: 17f9 163e 991e a2bf d279 06bf 7e3c 2dbf
000003b0: e7db c73e 5afe 7b3f 2279 953e 543f 653e
000003c0: 3355 aabe 2036 2f3f d242 cd3e 3dc7 743e
000003d0: ff2b d8bd efce ad3e b11b 15be 8e8b d3be
000003e0: e23b 81be 2273 ddbe 71f7 363c f834 2cbe
000003f0: e30a c5be 62f5 da3e 3b9e c1bd 1301 f9be

fc1.bias f4 [120]
0.07757488 0.1315951 -0.2196781 0.18600799 0.01595246 -0.029714173 -0.39484906 0.46509364
0.17410487 -0.2011795 -0.71494776 0.1599473 -0.2573171 0.20212162 -0.23769194 -0.23260754
-0.17640448 0.276492 -0.023059953 0.04597326 -0.22342058 0.36933145 -0.54120344 0.27107465
-0.47538936 -0.23024093 0.08066914 -0.41800258 0.31874996 0.39864323 0.659224 0.21814407
-0.25899333 -0.063243166 -0.02544016 -0.6115598 -0.63525957 -0.012198691 -0.33761865 0.009985973
-0.11029656 -0.22580494 0.11714482 -0.05763458 0.37172833 -0.17266475 0.24418756 -0.011967313
0.32772008 0.4766163 0.021396657 0.03789221 -0.23227805 -0.21213867 0.5708284 -0.18756278
0.34539607 0.24147718 0.25643292 -0.060792692 0.112680554 0.016195733 0.19889763 0.19949017
0.23115496 0.19725381 -0.11204834 0.10372702 -0.024380809 -0.13205005 0.017464232 -0.5191161
-0.373763 0.10320622 -0.046040487 -0.44031045 -0.24052234 0.23538499 -0.4194134 0.02167013
-0.21033093 -0.24063447 0.3269724 0.47083715 0.16338249 -0.2045117 -0.14138253 -0.31242543
0.40782085 -0.21321507 0.072605245 0.031194137 -0.012878334 -0.19513899 -0.37664634 0.24962604
-0.35852134 0.12682101 0.39334044 -0.20207338 -0.053136483 -0.13268946 0.9648717 -1.01183
-0.010527693 -0.08459379 -0.11865977 -0.33204404 -0.21579513 0.70965564 -0.021506034 0.24073379
-0.13927071 -0.28647584 0.6625354 -0.5325355 0.640323 0.503663 0.018673237 0.04819392
00000000: 94df 9e3d dec0 063e 4cf3 60be e178 3e3e
00000010: bcae 823c 236b f3bc a829 cabe c120 ee3e
00000020: 8c48 323e 0002 4ebe d106 37bf 3ac9 233e
00000030: 11bf 83be f8f8 4e3e 8465 73be ac30 6ebe
00000040: 60a3 34be 5c90 8d3e 3ae8 bcbc 754e 3c3d
00000050: 5dc8 64be 0319 bd3e 4f8c 0abf 4cca 8a3e
00000060: 3c66 f3be 47c4 6bbe dd35 a53d 6f04 d6be
00000070: 3233 a33e f71a cc3e e7c2 283f 2961 5f3e
00000080: c69a 84be a285 81bd e267 d0bc 2f8f 1cbf
00000090: 5fa0 22bf 05dd 47bc 5adc acbe 359c 233c
000000a0: 2ae3 e1bd 6939 67be a0e9 ef3d 3d12 6cbd
000000b0: 2d53 be3e 07cf 30be 4e0c 7a3e 8c12 44bc
000000c0: edca a73e 0d07 f43e 0b48 af3c dd34 1b3d
000000d0: 4cda 6dbe e13a 59be cf21 123f 7510 40be
000000e0: c1d7 b03e cb45 773e 2d4b 833e c201 79bd
000000f0: 10c5 e63d eaac 843c d2ab 4b3e 2747 4c3e
00000100: e3b3 6c3e e7fc 493e 9a79 e5bd d56e d43d
00000110: 43ba c7bc 2138 07be 2611 8f3c cbe4 04bf
00000120: dd5d bfbe c85d d33d f394 3cbd 5f70 e1be
00000130: 7d4b 76be c308 713e 5abd d6be 8e85 b13c
00000140: fe60 57be e268 76be ed68 a73e 9111 f13e
00000150: bd4d 273e 846b 51be 95c6 10be 3af6 9fbe
00000160: e5cd d03e 0d55 5abe 0fb2 943d d98a ff3c
00000170: a6ff 52bc 84d2 47be cad7 c0be f89d 7f3e
00000180: 1c90 b7be 5edd 013e eb63 c93e 53ec 4ebe
00000190: a4a5 59bd bfdf 07be d501 773f a583 81bf
000001a0: 587c 2cbc 823f adbd e503 f3bd ad01 aabe
000001b0: 66f9 5cbe feab 353f 6c2d b0bc eb82 763e
000001c0: fb9c 0ebe f6ac 92be ec9b 293f 3f54 08bf
000001d0: 35ec 233f 0ff0 003f 9ef8 983c fd66 453d

fc1.weight f4 [120, 512]
-0.23580077 -0.37760764 -0.1988488 -0.31624496 -0.33269468 -0.128968 0.0077037965 -0.18560344
-0.047252513 0.051208816 0.26210883 -0.36194664 -0.12831622 0.12698866 -0.35876027 -0.5823203
-0.21152475 0.06462744 0.16480021 0.15844426 0.042263307 0.20744851 -0.062225282 -0.04965018
-0.1532618 0.49302086 0.20669073 0.31988096 -0.364961 0.08346203 -0.1661799 0.24066038
0.044951044 -0.3644127 0.11272731 -0.17272091 0.24725111 0.21211793 -0.14228216 0.09565316
-0.33390528 0.092649095 -0.08683918 0.3238082 -0.12246 -0.36310893 -0.3835764 -0.2387503
0.44295883 0.15452741 -0.1481977 -0.03557547 -0.046167526 -0.44566044 -0.50165445 -0.2895345
0.13642891 0.030282868 -0.18291272 -0.15005453 0.09365376 -0.33561438 -0.21669774 0.28562847
0.56232274 -0.2879209 -0.15930106 0.0799932 -0.005121914 -0.12978724 -0.50825423 -0.14030333
-0.25110832 0.13225015 0.45735577 -0.1275526 -0.69465524 -0.032224268 0.032975066 -0.059637338
-0.4890157 -0.6041819 -0.1574969 -0.14468181 -0.4360531 0.056524687 -0.39294285 -0.1675785
-0.37693095 0.065513685 0.044277057 -0.16833206 -0.525452 -0.01698732 -0.4565858 -0.044317976
-0.3451056 -0.0511492 0.05228608 -0.5588421 -0.21826628 0.013773446 0.18651178 -0.46513686
0.1882891 0.21687908 0.30288985 0.13164409 0.30959803 -0.062896445 0.14393924 -0.44193894
-0.040269885 0.38895324 0.13160798 0.26722392 -0.43050668 -0.047604393 -0.2476798 0.15276144
0.32692415 0.28319106 -0.22784348 -0.07419518 0.047526218 -0.10767098 -0.34023058 -0.24378592
-0.08138 -0.05056361 -0.276484 0.4350423 -0.3100278 0.4393237 -0.34154987 0.213414
0.044188075 -0.26194322 0.012650642 -0.013605427 0.342731 0.22032999 -0.08891193 0.04086555
-0.384027 -0.10901724 -0.654168 -0.13637581 -0.5232203 -0.010217103 0.33090726 0.16332905
-0.19396465 -0.30059424 0.6351564 0.24037413 -0.38324967 0.041288536 -0.30891347 0.105834454
0.040366378 0.06638751 0.04645579 0.29013553 -0.16727641 0.08949891 -0.41230842 -0.06915556
-0.187927 -0.021917276 -0.12406009 -0.22520988 -0.037865493 -0.13799699 -0.023637326 -0.57540536
-0.41509926 0.28753987 0.37734523 -0.13054506 0.33270553 0.16388477 0.014819469 -0.24645999
0.071919516 0.016584525 -0.16203918 -0.20362101 0.17885448 0.2722225 0.42556298 -0.294032
0.26647142 -0.013350008 -0.14417835 -0.04117895 0.11358426 0.009226312 0.077917114 -0.16309606
0.2678934 0.017154457 -0.112818204 -0.4571979 -0.10747614 0.8188136 -0.009437272 -0.005627026
0.36728165 0.034071293 0.06808032 0.17452802 0.4812305 -0.28587997 0.03278921 0.11821228
0.08493282 -0.25552776 -0.17165771 0.36395463 0.25566837 0.34624463 0.015571809 0.2914843
-0.4315537 0.07001826 -0.0864468 -0.37308678 -0.049464133 -0.30128145 -0.21785466 0.038604956
-0.07992703 -0.0051101963 0.25989333 0.46565056 -0.3769687 0.39030552 0.10532436 0.2117588
-0.56079614 0.19305041 0.14487763 -0.33104342 -0.10507758 0.10367341 -0.25435355 -0.05294428
0.07358457 -0.29704815 0.07831582 0.27653846 -0.2912005 -0.23700832 -0.14014071 -0.05517395
00000000: c275 71be ca55 c1be 059f 4bbe dcea a1be
00000010: f556 aabe 3010 04be 2170 fc3b d40e 3ebe
00000020: da8b 41bd 56c0 513d 2133 863e 1251 b9be
00000030: 5465 03be 5109 023e 6daf b7be f112 15bf
00000040: f299 58be 645b 843d 63c1 283e 363f 223e
00000050: 4a1c 2d3d 626d 543e f0df 7ebd fd5d 4bbd
00000060: a9f0 1cbe 3b6d fc3e bca6 533e 70c7 a33e
00000070: 2bdc babe 24ee aa3d 102b 2abe ad6f 763e
00000080: 961e 383d 4d94 babe 93dd e63d c0dd 30be
00000090: 652f 7d3e 7135 593e 6ab2 11be cee5 c33d
000000a0: a2f5 aabe cfbe bd3d bdd8 b1bd 30ca a53e
000000b0: 4fcc fabd 6ae9 b9be 2064 c4be f57a 74be
000000c0: 80cb e23e 6f3c 1e3e 23c1 17be 96b7 11bd
000000d0: 291a 3dbd 9b2d e4be 6d6c 00bf de3d 94be
000000e0: 05b4 0b3e c713 f83c 794d 3bbe e5a7 19be
000000f0: 8bcd bf3d a6d5 abbe 03e6 5dbe e53d 923e
00000100: 62f4 0f3f 5e6a 93be d11f 23be 7ad3 a33d
00000110: bbd5 a7bb f2e6 04be f31c 02bf adab 0fbe
00000120: 4591 80be 956c 073e 892a ea3e 269d 02be
00000130: edd4 31bf 98fd 03bd dd10 073d 4846 74bd
00000140: 4460 fabe aaab 1abf de46 21be 7827 14be
00000150: 5a42 dfbe 6e86 673d ce2f c9be b399 2bbe
00000160: 18fd c0be 0a2c 863d dc5b 353d 3d5f 2cbe
00000170: 0684 06bf fe28 8bbc 9dc5 e9be c486 35bd
00000180: aeb1 b0be d381 51bd ee29 563d 4710 0fbf
00000190: 3281 5fbe 05aa 613c f2fc 3e3e 6b26 eebe
000001a0: dcce 403e 8d15 5e3e 6114 9b3e b5cd 063e
000001b0: a283 9e3e dacf 80bd cf64 133e d245 e2be
000001c0: 09f2 24bd e124 c73e 3ec4 063e 93d1 883e
000001d0: 5f6b dcbe d3fc 42bd c69f 7dbe 7f6d 1c3e
000001e0: 9a62 a73e 6bfe 903e cd4f 69be a4f3 97bd
000001f0: daaa 423d 9a82 dcbd b432 aebe 04a3 79be
00000200: 8faa a6bd ca1b 4fbd 508f 8dbe ddbd de3e
00000210: f7bb 9ebe 09ef e03e a0df aebe 3389 5a3e
00000220: 8efe 343d 6c1d 86be a344 4f3c 4ce9 5ebc
00000230: 707a af3e 2f9e 613e 7517 b6bd a362 273d
00000240: 309f c4be 6e44 dfbd 8e77 27bf 1aa6 0bbe
00000250: c4f1 05bf a365 27bc ad6c a93e bb3f 273e
00000260: ab9e 46be 7de7 99be 9c99 223f a324 763e
00000270: 4d39 c4be 2b1e 293d e829 9ebe bcbf d83d
00000280: 3757 253d 2df6 873d 6d48 3e3d a58c 943e
00000290: 824a 2bbe 344b b73d 171a d3be 6ea1 8dbd
000002a0: ef6f 40be dc8b b3bc 3713 febd 6b9d 66be
000002b0: d918 1bbd 154f 0dbe 11a3 c1bc c44d 13bf
000002c0: e487 d4be 6d38 933e 6533 c13e 9bad 05be
000002d0: 6158 aa3e 69d1 273e 5ccd 723c 0260 7cbe
000002e0: 8a4a 933d 45dc 873c 99ed 25be 0782 50be
000002f0: a125 373e bf60 8b3e 64e3 d93e 5d8b 96be
00000300: f16e 883e feb9 5abc 7da3 13be 42ab 28bd
00000310: dd9e e83d f529 173c 0293 9f3d a702 27be
00000320: 5329 893e 8187 8c3c 3b0d e7bd d815 eabe
00000330: 731c dcbd c59d 513f ca9e 1abc ea62 b8bb
00000340: 570c bc3e 578e 0b3d b26d 8b3d 79b7 323e
00000350: d863 f63e dc5e 92be fb4d 063d 4819 f23d
00000360: 42f1 ad3d 89d4 82be 0ac7 2fbe 4358 ba3e
00000370: f7e6 823e fa46 b13e e720 7f3c 6e3d 953e
00000380: 9bf4 dcbe bc65 8f3d 050b b1bd 3b05 bfbe
00000390: e79a 4abd 9041 9abe 4b15 5fbe 3b20 1e3d
000003a0: c8b0 a3bd 6f73 a7bb bd10 853e c069 ee3e
000003b0: 0b02 c1be 20d6 c73e 4cb4 d73d 4dd7 583e
000003c0: 5690 0fbf 02af 453e cd5a 143e 867e a9be
000003d0: ea32 d7bd ba52 d43d a13a 82be 1adc 58bd
000003e0: 82b3 963d b216 98be 0b64 a03d 7396 8d3e
000003f0: 3b18 95be 4fb2 72be 0c81 0fbe 14fe 61bd

fc2.bias f4 [84]
2.1060638 -0.44939235 -0.6830154 -0.07209285 0.013756055 -0.41678214 0.056033783 -0.2192951
-0.26270983 -0.6112228 1.3108388 -0.59654623 -0.001568469 -0.105321094 0.006906335 0.10250616
-0.702769 -0.10559572 -0.19517224 0.30146903 -0.07911215 -0.08749241 -0.027216805 0.56632006
0.096746854 0.13848029 -0.8612631 -0.4551845 1.0457178 -0.57082176 -0.7503307 0.12706728
-0.05482765 0.02231305 -0.16153608 -0.6973694 -0.23381355 1.372755 -0.48449272 -0.53497446
0.16084382 -0.63819253 0.5013266 1.1680439 0.08781016 -0.29854938 0.046269134 0.24214537
-0.43771318 1.761775 0.32572013 1.5793259 1.2106833 0.64397293 -0.018945718 -0.12859617
-0.43379658 -0.30860433 0.8210464 1.0796826 -0.41996333 -0.09833954 -0.05401359 -1.3118609
0.36253163 0.2647487 -0.3016953 -0.5264813 -0.6797092 -0.59308374 0.13109063 0.28601795
-0.7457714 -0.07901672 0.31436163 -1.315391 0.13663442 -0.6472457 0.43031195 -0.13530746
0.06542408 1.0928777 -0.34186265 1.1631492
00000000: c0c9 0640 c116 e6be 19da 2ebf 6ba5 93bd
00000010: 1461 613c 7864 d5be ae83 653d e58e 60be
00000020: e781 86be 1979 1cbf 91c9 a73f 41b7 18bf
00000030: 1695 cdba 96b2 d7bd 894e e23b c0ee d13d
00000040: abe8 33bf 9242 d8bd 3bdb 47be 265a 9a3e
00000050: 8d05 a2bd 382f b3bd c7f5 debc 5afa 103f
00000060: 3723 c63d c7cd 0d3e bd7b 5cbf f10d e9be
00000070: 15da 853f 6021 12bf ac15 40bf ed1d 023e
00000080: f592 60bd dcc9 b63c b769 25be cd86 32bf
00000090: d26c 6fbe 70b6 af3f 6e0f f8be 16f4 08bf
000000a0: 3eb4 243e 9660 23bf f156 003f 7682 953f
000000b0: d0d5 b33d 77db 98be b484 3d3d f5f4 773e
000000c0: f11b e0be d881 e13f cac4 a63e 5a27 ca3f
000000d0: acf7 9a3f 69db 243f 0d34 9bbc b7ae 03be
000000e0: 961a debe 6301 9ebe 1930 523f 0a33 8a3f
000000f0: 6f05 d7be 3e66 c9bd 5b3d 5dbd 0feb a7bf
00000100: bf9d b93e 248d 873e ce77 9abe 7ac7 06bf
00000110: 6c01 2ebf 56d4 17bf 9f3c 063e f270 923e
00000120: e0ea 3ebf 85d3 a1bd 02f4 a03e bb5e a8bf
00000130: e5e9 0b3e e5b1 25bf d951 dc3e 0a8e 0abe
00000140: 0ffd 853d 6be3 8b3f 9f08 afbe 13e2 943f

fc2.weight f4 [84, 120]
-0.106888816 -0.21199486 -0.547583 -0.024647402 -0.10396894 -0.4078477 -0.0013420611 0.030145181
0.051036436 -0.21698424 -0.17023313 -0.15198073 -0.33962753 0.11608854 -0.06322028 -0.28728366
-0.17961662 0.02856836 -0.49357116 -0.26453978 0.016092606 -0.14485191 -0.10506312 0.121302225
-0.20541726 -0.27241424 -0.31204948 -0.45590708 0.16126198 0.041153688 0.015149302 -0.030003713
0.06926989 0.23143588 -0.43440124 -0.09836248 -0.3504396 0.037736874 -0.6317184 0.010998538
-0.17919767 -0.14145619 0.19599636 -0.4314216 -0.07777434 -0.3220022 -0.041671183 0.25771385
0.031595726 0.0675855 -0.106256135 -0.15710035 0.085200265 0.0128703145 0.03946835 -0.53886664
0.13922907 -0.004720365 0.09300357 -0.1748496 -0.109332874 -0.030781552 0.1202168 0.2076505
-0.1741419 0.17447929 -0.2937339 0.06026984 -0.3523375 0.03245367 -0.1938681 -0.4289211
-0.532908 -0.22744872 0.11455984 -0.41053924 -0.11994699 -0.02951762 -0.11026625 -0.2974224
-0.035402916 -0.07167072 0.11290124 0.121863484 0.16109985 -0.019685604 -0.23480533 -0.4425116
-0.1297752 -0.5059305 0.047964364 -0.0476327 -0.09774976 0.0007555395 -0.15341493 -0.048213866
-0.5094062 -0.040722065 0.032403372 -0.054364022 -0.07675254 -0.30733466 0.26799667 -0.14501081
-0.392365 -0.3004635 -0.2308998 -0.20565785 -0.047383405 0.06113863 0.061763365 0.17768285
-0.5297681 -0.38188595 0.010266414 -0.20745558 0.055692285 0.079061404 -0.072447285 -0.34035626
-0.07439338 -0.059843224 0.34020302 -0.37463826 -0.34357736 -0.54420054 -0.45061612 -0.35801893
0.024737561 0.16068892 -0.44365355 0.064730935 -0.3154152 -0.0964052 -0.12114799 0.028488955
0.12296303 -0.06861682 -0.093681 -0.1682893 0.05451348 -0.34394163 -0.51447266 -0.4743639
-0.09552233 -0.39625013 -0.19997352 -0.23803037 -0.1640088 -0.17451783 0.13265193 -0.1188745
-0.187236 -0.35177237 -0.27842245 -0.42728436 -0.4621818 -0.39502263 -0.062307764 -0.48533708
-0.117324784 -0.16931798 -0.26256293 0.0138934115 0.009646346 0.04820884 -0.25402677 0.14214733
-0.095515884 -0.1254831 -0.15306062 -0.119586974 -0.020850861 -0.19899267 -0.2759106 -0.17437851
-0.13798736 0.097623914 0.043317292 -0.03586069 -0.31971282 -0.52908045 -0.0050657615 0.24075139
-0.26338556 -0.22583802 -0.078973465 -0.11305727 -0.5019857 -0.041305114 -0.37614107 0.20392041
0.1331766 -0.16739655 -0.19747159 -0.19474398 -0.12953281 -0.1723177 0.1360874 -0.27556145
-0.18484174 -0.24815321 0.33924472 0.0585362 0.14126804 -0.25215358 0.03218964 -0.069872916
-0.26490194 -0.036888145 -0.48849532 -0.076088704 0.18474528 0.030934123 -0.045132503 0.06659276
-0.03498756 -0.21246132 0.15888269 -0.020041296 0.044920918 -0.41984558 0.008119047 -0.21199141
-0.34413165 0.08116476 -0.36908877 0.16207848 -0.1690129 0.06226952 0.04385332 -0.123466775
-0.07603744 -0.070074946 -0.10636319 -0.02129874 -0.2981305 -0.07954001 -0.19368494 -0.06383055
-0.031000393 -0.3642909 -0.34201273 -0.1641516 0.18830906 -0.100847736 -0.5374726 -0.25269368
-0.20754382 -0.34490338 0.06346509 -0.09999925 -0.058754824 -0.40841085 0.047775686 0.06672984
00000000: 86e8 dabd 2e15 59be 662e 0cbf 59e9 c9bc
00000010: abed d4bd 6ad1 d0be 19e8 afba 07f3 f63c
00000020: 950b 513d 1e31 5ebe 9851 2ebe d6a0 1bbe
00000030: a9e3 adbe d4bf ed3d a279 81bd d816 93be
00000040: 6bed 37be 3108 ea3c 5cb5 fcbe c271 87be
00000050: a4d4 833c 0f54 14be 552b d7bd 4d6d f83d
00000060: e758 52be e179 8bbe f3c4 9fbe a76c e9be
00000070: dc21 253e c590 283d c734 783c 59ca f5bc
00000080: 5fdd 8d3d 87fd 6c3e d769 debe 4572 c9bd
00000090: d26c b3be fb91 1a3d 4cb8 21bf 3633 343c
000000a0: 987f 37be e4d9 10be 45b3 483e 4be3 dcbe
000000b0: 2748 9fbd 79dd a4be 67af 2abd 12f3 833e
000000c0: 856a 013d 446a 8a3d d19c d9bd eade 20be
000000d0: 7a7d ae3d 03de 523c 91a9 213d 2af3 09bf
000000e0: 1192 0e3e 4bad 9abb a878 be3d c60b 33be
000000f0: eae9 dfbd 9829 fcbc 3a34 f63d 55a2 543e
00000100: 4152 32be b3aa 323e 4a64 96be 82dd 763d
00000110: 9565 b4be 24ee 043d 5c85 46be 8c9b dbbe
00000120: a96c 08bf 51e8 68be 599e ea3d 3332 d2be
00000130: c4a6 f5bd f0ce f1bc 46d3 e1bd c047 98be
00000140: a602 11bd 19c8 92bd c438 e73d 9093 f93d
00000150: 5cf7 243e b443 a1bc cf70 70be e190 e2be
00000160: cae3 04be a984 01bf 4876 443d 821a 43bd
00000170: 0731 c8bd 660f 463a ce18 1dbe e77b 45bd
00000180: 7268 02bf 2ecc 26bd 66b9 043d cfac 5ebd
00000190: 7030 9dbd f85a 9dbe dc36 893e b77d 14be
000001a0: 11e4 c8be 5ad6 99be ff70 6cbe f997 52be
000001b0: 1a15 42bd 806c 7a3d 95fb 7c3d 7ef2 353e
000001c0: e29e 07bf 8e86 c3be 7634 283c 3c6f 54be
000001d0: 981d 643d f2ea a13d 3e5f 94bd 2d43 aebe
000001e0: 8e5b 98bd 2b1e 75bd 172f ae3e 96d0 bfbe
000001f0: 5fe9 afbe ba50 0bbf 28b7 e6be 424e b7be
00000200: 6da6 ca3c a38b 243e 8f26 e3be a791 843d
00000210: 1a7e a1be 1770 c5bd 701c f8bd ab61 e93c
00000220: 0bd4 fb3d fa86 8cbd d3db bfbd 0854 2cbe
00000230: 8749 5f3d 1e19 b0be 7bb4 03bf d3df f2be
00000240: 36a1 c3bd 4ce1 cabe dcc5 4cbe 3cbe 73be
00000250: ecf1 27be cdb4 32be e8d5 073e 7974 f3bd
00000260: cbba 3fbe 821b b4be 638d 8ebe 04c5 dabe
00000270: 18a3 ecbe 6840 cabe 6d36 7fbd 1a7e f8be
00000280: fa47 f0bd b161 2dbe a66e 86be 31a1 633c
00000290: b50b 1e3c a276 453d cc0f 82be 128f 113e
000002a0: d59d c3bd a47e 00be ecbb 1cbe 04ea f4bd
000002b0: 6dcf aabc bcc4 4bbe 2744 8dbe 4890 32be
000002c0: 8f4c 0dbe 0cef c73d 796d 313d a9e2 12bd
000002d0: 66b1 a3be d171 07bf b0fe a5bb 8887 763e
000002e0: 79da 86be 1542 67be d7bc a1bd 928a e7bd
000002f0: 2382 00bf 8d2f 29bd 9095 c0be 83d0 503e
00000300: 725f 083e 006a 2bbe fe35 4abe f76a 47be
00000310: 40a4 04be 0d74 30be 7f5a 0b3e 6416 8dbe
00000320: 2747 3dbe e01b 7ebe 7cb1 ad3e a8c3 6f3d
00000330: 92a8 103e 461a 81be 49d9 033d 8819 8fbd
00000340: 3aa1 87be 0618 17bd 0f1c fabe 65d4 9bbd
00000350: de2d 3d3e 8f69 fd3c dcdc 38bd c961 883d
00000360: 1e4f 0fbd 768f 59be 25b2 223e a52d a4bc
00000370: fffe 373d 00f6 d6be c005 053c 4714 59be
00000380: 0632 b0be b639 a63d 34f9 bcbe e7f7 253e
00000390: b811 2dbe 530e 7f3d 8a9f 333d 26dc fcbd
000003a0: 84b9 9bbd 7483 8fbd f2d4 d9bd b27a aebc
000003b0: 90a4 98be dfe5 a2bd 5855 46be 97b9 82bd
000003c0: 89f4 fdbc 5684 babe 4b1c afbe 5b17 28be
000003d0: 17d4 403e 4289 cebd ce97 09bf 1161 81be
000003e0: 5e86 54be 2d97 b0be fcf9 813d 68cc ccbd
000003f0: e6a8 70bd 3a1b d1be 70b0 433d a8a9 883d

fc3.bias f4 [10]
-0.25156522 -0.82626706 0.15727296 0.9003583 0.38429734 0.5077976 -0.20689616 -0.23467453
-0.44537878 -0.26808345
00000000: 28cd 80be 3d86 53bf 2a0c 213e e27d 663f
00000010: 9fc2 c43e 06ff 013f 96dc 53be 854e 70be
00000020: b008 e4be 3c42 89be

fc3.weight f4 [10, 84]
-0.043009304 -0.012291063 -0.022199558 0.0076623056 -0.035594717 0.14940952 -0.06963374 -0.027654793
0.19937484 0.1860225 -0.12616016 -0.04035314 0.2092633 -0.09560212 -0.06452492 -0.116009794
-0.07756036 -0.01659176 -0.036925945 -0.049161304 -0.13058597 -0.0057789665 0.0033602167 0.10152888
-0.16981494 0.14354697 0.091409534 0.069941625 0.14804035 0.14048354 0.053143263 0.0930161
0.07348874 -0.09553697 0.081361435 0.029808426 0.011973868 -0.12437912 0.027942937 -0.06178956
0.1309444 0.02877263 -2.9419996e-05 -0.08353362 0.12485732 0.075903945 0.22143187 0.07939327
0.0852117 0.06765977 -0.059806727 -0.046356443 -0.16960715 -0.14370352 -0.009819638 0.13427693
-0.119658425 0.037919022 -0.14483725 0.0782733 0.024849767 -0.11410129 0.0064995526 0.21341114
0.020245695 -0.034556814 -0.012972537 0.16686158 0.06274902 0.01943481 -0.09579124 0.12610011
0.00013285925 -0.09528238 -0.054749437 -0.07322798 -0.10751131 0.013647762 -0.14700852 -0.094378054
-0.08840447 -0.013164524 -0.019835817 -0.09808991 -0.126919 0.18056507 0.1024731 0.00463468
0.19325817 -0.013016963 0.09487227 -0.06483643 0.20814857 0.03306972 -0.3420706 -0.1150666
-0.07245437 -0.17979743 -0.218104 -0.04477387 0.055039104 -0.05380642 -0.20080481 -0.01993466
0.008776521 0.057437655 -0.084923215 -0.031102851 -0.08241142 -0.013854232 -0.105753355 0.07825941
0.12562212 0.12187382 0.049391177 -0.065019175 0.10276685 -0.061272047 -0.23741038 0.062376816
0.054882325 -0.2157901 0.14479783 -0.15968034 -0.037789565 -0.08947067 0.05422797 -0.058229823
0.14469178 0.014758589 -0.006751222 -0.19758642 -0.11295777 -0.10922216 -0.2024821 -0.07923172
0.06675999 -0.025400529 0.1976864 0.089497834 -0.119348295 -0.044038817 -0.019007882 0.036737602
-0.022180447 -0.16616118 -0.029721381 0.03663103 0.2061359 -0.109740585 -0.19187899 -0.027404545
0.010084418 -0.10939953 0.049118917 -0.0160216 -0.014006812 -0.111584894 -0.089282215 0.14106451
-0.071574576 0.00036727055 -0.21865612 0.047331985 -0.068876885 -0.05963916 0.02963812 -0.039997034
0.024685198 -0.09436144 -0.050476573 -0.058324035 0.061579872 0.00925826 -0.18997665 -0.013414915
0.08071397 -0.041611355 0.07666854 0.09187332 -0.08899355 -0.0032882004 -0.048321214 -0.017376406
-0.029409079 -0.018253375 0.23215568 0.035508253 0.024153832 -0.04508504 0.06028701 -0.037192997
-0.03396454 0.05978382 0.2277888 0.031160222 -0.10996714 -0.024760997 0.2755563 0.08830788
-0.10467092 -0.12961364 0.13808088 -0.093968265 -0.08689965 0.10704295 0.021921812 -0.022147309
0.043510832 0.12520912 -0.020960823 -0.067065276 -0.046155907 -0.05276094 0.05476351 0.03946478
0.0035637098 0.090956055 0.083207764 0.04810339 0.15376805 0.0024230736 -0.06336775 0.027313039
0.036066324 0.19684565 0.061020676 -0.04460181 0.032159902 0.16433252 0.023488495 0.0057483492
-0.029094687 0.12970354 0.17266458 -0.037525736 0.11788612 0.058355924 0.029146055 -0.07453352
0.10393806 -0.08402886 0.03329126 -0.04539128 0.04440845 -0.01327414 0.0037629025 -0.03141421
0.18333405 0.043246813 -0.06378015 0.08303902 0.0021095139 -0.14879408 -0.047635175 0.06083937
00000000: 862a 30bd 7460 49bc d9db b5bc 1414 fb3b
00000010: c4cb 11bd cffe 183e 229c 8ebd 4e8c e2bc
00000020: eb28 4c3e af7c 3e3e 2130 01be 5649 25bd
00000030: 1e49 563e 0bcb c3bd a425 84bd 8b96 edbd
00000040: f7d7 9ebd 71eb 87bc a93f 17bd 5d5d 49bd
00000050: 54b8 05be 7c5d bdbb 1537 5c3b 60ee cf3d
00000060: f8e3 2dbe fafd 123e ec34 bb3d 8e3d 8f3d
00000070: e497 173e ebda 0f3e c0ac 593d 3a7f be3d
00000080: 4481 963d e3a8 c3bd d3a0 a63d cd30 f43c
00000090: 0b2e 443c 7bba febd 96e8 e43c 0d17 7dbd
000000a0: 4a16 063e 94b4 eb3c f6ca f6b7 ad13 abbd
000000b0: 32b5 ff3d 8773 9b3d 09bf 623e f098 a23d
000000c0: 7983 ae3d 3591 8a3d e6f7 74bd 41e0 3dbd
000000d0: 7fad 2dbe 0427 13be 8ce2 20bc e47f 093e
000000e0: 7a0f f5bd fa50 1b3d 3750 14be c04d a03d
000000f0: bd91 cb3c f0ad e9bd 33fa d43b 7388 5a3e
00000100: 4dda a53c 728b 0dbd c48a 54bc c3dd 2a3e
00000110: 8f82 803d c035 9f3c 332e c4bd 6320 013e
00000120: 2250 0b39 6923 c3bd f240 60bd 8df8 95bd
00000130: e42e dcbd dd9a 5f3c 6789 16be 4849 c1bd
00000140: 670d b5bd 04b0 57bc b97e a2bc 5de3 c8bd
00000150: 0ef7 01be 0de6 383e 6bdd d13d 84de 973b
00000160: 78e5 453e 1a45 55bc 654c c23d f6c8 84bd
00000170: e624 553e 1d74 073d e123 afbe 0aa8 ebbd
00000180: f562 94bd d11c 38be a856 5fbe ce64 37bd
00000190: af70 613d 1f64 5cbd c79f 4dbe 034e a3bc
000001a0: 66cb 0f3c bf43 6b3d 39ec adbd 68cb febc
000001b0: 52c7 a8bd dcfc 62bc 3795 d8bd 7846 a03d
000001c0: 16a3 003e fb98 f93d 674e 4a3d c628 85bd
000001d0: 6d77 d23d 66f8 7abd b51b 73be d57e 7f3d
000001e0: 4acc 603d 14f8 5cbe e245 143e 3e83 23be
000001f0: 3bc9 1abd 663c b7bd 261e 5e3d 6582 6ebd
00000200: 152a 143e 02ce 713c 5b39 ddbb 1854 4abe
00000210: 6756 e7bd deaf dfbd 7857 4fbe 3d44 a2bd
00000220: 76b9 883d c514 d0bc 4e6e 4a3e a44a b73d
00000230: e16c f4bd 0c62 34bd 6bb6 9bbc 2b7a 163d
00000240: c5b3 b5bc 2826 2abe 417a f3bc 6b0a 163d
00000250: 4a15 533e acbf e0bd ed7b 44be 7f7f e0bc
00000260: 1d39 253c dc0c e0bd eb30 493d bb3f 83bc
00000270: d47c 65bc 9f86 e4bd 98d9 b6bd 3773 103e
00000280: b195 92bd 388e c039 64e7 5fbe 2fdf 413d
00000290: 530f 8dbd 3148 74bd a5cb f23c eed3 23bd
000002a0: 9d38 ca3c 9240 c1bd 86c0 4ebd 2fe5 6ebd
000002b0: 2d3b 7c3d f5af 173c 3d89 42be 3bca 5bbc
000002c0: 5e4d a53d ab70 2abd 6504 9d3d 1428 bc3d
000002d0: 4042 b6bd d97e 57bb 77ec 45bd f758 8ebc
000002e0: 4feb f0bc 1a88 95bc 38ba 6d3e 1a71 113d
000002f0: 42de c53c 17ab 38bd 83ef 763d af57 18bd
00000300: 671e 0bbd e1df 743d 7841 693e b943 ff3c
00000310: 7436 e1bd 93d7 cabc b715 8d3e c3da b43d
00000320: b55d d6bd 70b9 04be 1365 0d3e 6f72 c0bd
00000330: 72f8 b1bd 5639 db3d 5f95 b33c 466e b5bc
00000340: 6a38 323d d236 003e 08b6 abbc 8559 89bd
00000350: fa0d 3dbd db1b 58bd b44f 603d d2a5 213d
00000360: 218d 693b 2b47 ba3d d568 aa3d 0f08 453d
00000370: 5f75 1d3e 6ecc 1e3b f3c6 81bd 98bf df3c
00000380: 48ba 133d e891 493e d1f0 793d 63b0 36bd
00000390: 1aba 033d c946 283e f26a c03c a65c bc3b
000003a0: fb57 eebc 01d1 043e fcce 303e 96b4 19bd
000003b0: 476e f13d 9f06 6f3d b5c3 ee3c 08a5 98bd
000003c0: 7add d43d 5317 acbd 6b5c 083d 35ec 39bd
000003d0: a3e5 353d c77b 59bc 079b 763b 30ac 00bd
000003e0: ecbb 3b3e 9223 313d 2b9f 82bd 5d10 aa3d
000003f0: c53f 0a3b 7a5d 18be 1a1d 43bd b432 793d
