pytorch部署/OpencvPytorch/testPytorch/cifar_net.pth (torch, 313231 bytes, 12 tensors)

weight f4 [6, 3, 3, 3]
0	0x3e4ecfca	0.20196453
1	0xbdbedb04	-0.09319118
2	0x3ef8e5d0	0.48612833
3	0x3f184287	0.5947651
4	0xbdd9e4ee	-0.10639368
5	0xbecc4cc5	-0.3990232
6	0x3ebded35	0.37095037
7	0x3f621fab	0.8832957
8	0xbed22eaa	-0.41051227
9	0xbd681c96	-0.056667887
10	0xbf1968e1	-0.5992566
11	0xbf8a14d3	-1.0787605
12	0x3f4ca296	0.79935586
13	0xbe53e716	-0.20693621
14	0xbfb525e1	-1.4152185
15	0x3e2dc770	0.1697061
16	0x3e5c7b72	0.21531466
17	0xbfd82a79	-1.6887962
18	0x3eef8119	0.4677818
19	0xbe07bcc1	-0.13255598
20	0xbde0a5c8	-0.1096912
21	0x3f264bd8	0.6495948
22	0x3e56bd89	0.2097074
23	0xbf274e09	-0.6535345
24	0x3e854a08	0.26033044
25	0x3f681f2b	0.9067256
26	0xbf02d41c	-0.51104903
27	0x3f113b2f	0.5673093
28	0x3f8cee7d	1.1010281
29	0x3ed66fbf	0.4188213
30	0x3e917a17	0.2841346
31	0x3f6e761a	0.9314896
32	0x3f5d0ead	0.8635052
33	0xbf6df6cd	-0.92954713
34	0xbf7ce5b8	-0.98788023
35	0xbf641819	-0.8909927
36	0x3f4d7b3f	0.80266184
37	0x3f8e3778	1.1110678
38	0x3ec6daca	0.38838798
39	0xbf3cc3da	-0.73736346
40	0xbf55a81f	-0.8345966
41	0xbf159a80	-0.58438873
42	0xbf2d6a57	-0.67740387
43	0xbfa016bc	-1.2506938
44	0xbf1f5fff	-0.62255853
45	0x3e82ef54	0.25573218
46	0xbe2b3552	-0.16719559
47	0xbe636858	-0.22207773
48	0xbe2c050e	-0.16798803
49	0xbee6388d	-0.4496502
50	0x3e137a6d	0.1440217
51	0x3ee918bb	0.4552668
52	0x3e505ddc	0.20348305
53	0x3f1170d0	0.56812763
54	0x3ead186d	0.33807698
55	0x3f801395	1.0005976
56	0xbf083c9c	-0.5321748
57	0x3f97643a	1.1827462
58	0xc028f57c	-2.6399832
59	0x3d83f360	0.064429045
60	0xbf8a31f8	-1.0796499
61	0xbf5299a5	-0.8226569
62	0x3fd638e8	1.6736116
63	0x3f60ab56	0.8776144
64	0x3f060df2	0.5236503
65	0xbf8c4abf	-1.0960311
66	0x3ff9217c	1.9463344
67	0xc019d43e	-2.4035792
68	0xbe2ebc06	-0.17063913
69	0x3e8dfb7d	0.27730933
70	0xbece1cca	-0.4025634
71	0x3f9c523f	1.22126
72	0xbf091151	-0.5354205
73	0x3f37e1d4	0.7182896
74	0xbdda35b8	-0.10654777
75	0x3f5c2bbe	0.86004245
76	0xbfeb31a1	-1.837452
77	0x3ed93acf	0.4242768
78	0xbf6dacb8	-0.9284167
79	0xbd6f3622	-0.058401234
80	0x3f96f388	1.179307
81	0xbf3e01a9	-0.74221283
82	0xbf04c77a	-0.5186688
83	0xbf75ad21	-0.959673
84	0xbf07bedc	-0.53025603
85	0xbf624108	-0.8838048
86	0xbed28556	-0.41117352
87	0x3f6c5bbe	0.9232749
88	0x3f86057a	1.0470421
89	0x3f74a0c5	0.95557815
90	0x3e6b6385	0.22987182
91	0x3e278542	0.16359428
92	0x3d38eae8	0.0451459
93	0xbe9ae88d	-0.30255547
94	0xbf4f82e6	-0.8105911
95	0xbf264a72	-0.64957345
96	0xbdf6a0a2	-0.12042357
97	0x3e368e29	0.17827667
98	0xbd311434	-0.043232158
99	0x3e81d667	0.25358889
100	0x3eb7c842	0.35894972
101	0x3ec2d768	0.38054967
102	0x3e8e3f71	0.27782777
103	0xbdebdc0c	-0.1151658
104	0xbd3f7342	-0.046740778
105	0x3da796d7	0.08183067
106	0x3d38cb41	0.045115713
107	0x3e072fc4	0.13201815
108	0x3f158a74	0.5841439
109	0x3dbdc241	0.092655666
110	0x3e80d63b	0.25163445
111	0xbf2ae6e7	-0.6675858
112	0xbf8fc53c	-1.1232066
113	0xbf580cab	-0.8439433
114	0xbee0d83a	-0.43914968
115	0xbf04ece2	-0.51923954
116	0xbc49fa56	-0.012327751
117	0xbecfbb44	-0.4057256
118	0xbe422762	-0.18960336
119	0x3d39c5ed	0.045354772
120	0xbde6e01d	-0.11273215
121	0x3da3f3a9	0.08005459
122	0x3e160a8f	0.14652465
123	0xbe23fe1f	-0.16014908
124	0x3e3da9e6	0.18521842
125	0xbe9e4b23	-0.309167
126	0x3ef45576	0.47721452
127	0x3f28b8c8	0.65906954
128	0x3e113c24	0.14183098
129	0x3f60fe52	0.8788806
130	0x3f6c9691	0.92417246
131	0x3f11bbcb	0.56927174
132	0x3f26f134	0.65211797
133	0x3eee6f4e	0.46569294
134	0xbea15b0a	-0.3151477
135	0xbebe6c8f	-0.371922
136	0xbeb56612	-0.35429436
137	0xbe7ff19c	-0.2499451
138	0xbef11805	-0.47088638
139	0xbdf592d2	-0.119908944
140	0x3e0b77ad	0.13619871
141	0xbe0a6311	-0.13514353
142	0x3dd72cf4	0.10506621
143	0xbe01039d	-0.12599035
144	0xbef97270	-0.4872012
145	0xbdb70351	-0.089361794
146	0x3d20122c	0.03907983
147	0xbf0bf5e9	-0.54672104
148	0x3e173bc7	0.14768897
149	0x3d9f125a	0.07767172
150	0xbe5310d0	-0.20611882
151	0x3eddee1a	0.4334572
152	0xbe83b894	-0.2572676
153	0xbe5aa6aa	-0.2135264
154	0x3c3a84e9	0.011384227
155	0x3e428e32	0.18999556
156	0x3dfadd95	0.12249295
157	0x3f5f1e7d	0.87155896
158	0x3f26399e	0.64931667
159	0x3ed7897f	0.4209709
160	0x3f7e4429	0.99322754
161	0x3ea8e631	0.32988122

bias f4 [6]
0	0xbe87d756	-0.26531476
1	0xbf134bad	-0.5753735
2	0xbe842c64	-0.25815117
3	0x3e5be1d0	0.2147286
4	0x3ea0ec03	0.31430063
5	0xbf764658	-0.96201086

weight f4 [12, 6, 3, 3]
0	0xbe428a00	-0.18997955
1	0x3ed225c0	0.41044426
2	0x3dca3b0b	0.09874543
3	0xbf49b31a	-0.7878891
4	0xbf20ffa2	-0.62890065
5	0x3e5ebce8	0.2175175
6	0x3ed488a7	0.41510507
7	0xbf03538c	-0.5129936
8	0x3ea70ab8	0.32625365
9	0x3e6ad5b1	0.2293308
10	0xbf59e869	-0.85120255
11	0x3eff1b9e	0.49825758
12	0xbf1db157	-0.61598724
13	0xbed6b951	-0.4193826
14	0xbe1cbe45	-0.15306957
15	0xbee6e10d	-0.45093575
16	0xbe061886	-0.13095292
17	0xbe0363f9	-0.12831105
18	0xbe0ad37b	-0.13557236
19	0x3ec6005a	0.38672143
20	0xbe2d110a	-0.16901031
21	0x3f26856a	0.65047324
22	0x3e823d29	0.25437286
23	0x3f116f5d	0.5681055
24	0xbe488af4	-0.19584256
25	0x3f122994	0.57094693
26	0xbeb1d434	-0.3473221
27	0xbe89ccb2	-0.26913983
28	0x3f3752e3	0.7161085
29	0x3e9346ed	0.2876505
30	0xbe236659	-0.15957011
31	0xbf50f1e5	-0.816191
32	0x3f3abff9	0.7294918
33	0xbfa8f552	-1.3199866
34	0xbf5b3469	-0.85626847
35	0x3e7f2b30	0.24918818
36	0xbf4ab581	-0.79183203
37	0xbf49b147	-0.7878613
38	0xbe2e0084	-0.16992384
39	0xbe8db750	-0.2767892
40	0xbefe8d2c	-0.4971708
41	0xbec5702c	-0.38562143
42	0xbe30f1ce	-0.17279741
43	0xbf2875b5	-0.65804607
44	0xbf2639d5	-0.64931995
45	0xbdd3c1b4	-0.1033968
46	0xbeed2fe8	-0.46325612
47	0xbe8c92b9	-0.2745569
48	0xbe2775c5	-0.1635352
49	0xbe28e75d	-0.16494508
50	0xbdff485d	-0.12464974
51	0xbde70d9c	-0.11281893
52	0xbe9aef93	-0.30260906
53	0xbeec54d4	-0.4615847
54	0xbec4764e	-0.3837151
55	0xbf04a368	-0.5181184
56	0xbf22b26f	-0.6355352
57	0xbef6723e	-0.48134035
58	0xbf3c08d7	-0.7345099
59	0xbe8c300e	-0.27380413
60	0xbec18fdf	-0.37805077
61	0xbf16523f	-0.5871925
62	0xbeb96e53	-0.36216983
63	0xbe4dc4db	-0.20094626
64	0x3c0f343f	0.008740484
65	0x3be58eae	0.007005534
66	0xbe0f18c3	-0.1397429
67	0xbeabeda4	-0.33579743
68	0xbdae1b09	-0.0850125
69	0x3ddb3772	0.10703935
70	0xbf05287d	-0.52014905
71	0xbec299a3	-0.3800784
72	0x3ee32989	0.44367626
73	0xbe3a6231	-0.1820152
74	0xbe1a8d35	-0.15092929
75	0xbe99e3ea	-0.30056697
76	0xbec94dff	-0.3931732
77	0xbe4860dc	-0.19568199
78	0x3e7aea3f	0.2450342
79	0x3d2d4dc5	0.042310495
80	0x3edd2691	0.43193486
81	0xbecce9a2	-0.40021998
82	0xbe8bb4ba	-0.2728632
83	0xbe7a5163	-0.24445109
84	0xbd4765c6	-0.048681043
85	0xbd2e0189	-0.042481933
86	0x3eeac931	0.45856622
87	0x3e8e7afc	0.27828205
88	0x3ea34aca	0.31892997
89	0x3f17715f	0.59157366
90	0x3f224ef9	0.6340175
91	0xbe2d7671	-0.16939713
92	0xbe89b16b	-0.26893172
93	0x3e4e402a	0.20141664
94	0xbe5d61c0	-0.2161932
95	0xbefb59b5	-0.4909188
96	0x3f8bc289	1.0918742
97	0x3e517424	0.2045446
98	0x3c087e78	0.008330934
99	0xbe91e860	-0.284976
100	0xbe21780a	-0.15768448
101	0xbed0171a	-0.40642625
102	0xbddba870	-0.10725486
103	0xbd3ce5dc	-0.04611765
104	0xba8e41cc	-0.0010853349
105	0x3f02c307	0.5107884
106	0x3e6f74d4	0.2338441
107	0x3e20a4c8	0.15687859
108	0x3df29367	0.11844521
109	0x3e2d202b	0.16906802
110	0xbebb6c4f	-0.3660607
111	0x3dd8df40	0.105894566
112	0xbc73cbf0	-0.014880165
113	0xbe83bb2c	-0.25728738
114	0xbe3efe17	-0.18651615
115	0xbf6577b4	-0.8963578
116	0x3d66e7de	0.05637347
117	0xbe30b4b8	-0.17256439
118	0x3e9f3b9e	0.31100172
119	0xbd552788	-0.052039653
120	0x3e9bc38c	0.30422628
121	0xbdcd434f	-0.10022604
122	0xbf0b6539	-0.5445133
123	0x3ecbe9ea	0.398269
124	0xbf637591	-0.8885127
125	0xbd9bbbab	-0.07604154
126	0xbe594420	-0.21217394
127	0xbe001f7f	-0.12512015
128	0x3f3e840f	0.74420255
129	0xbdecc66d	-0.11561284
130	0x3f302e29	0.68820435
131	0x3e5f31a6	0.21796283
132	0x3e9175c0	0.2841015
133	0x3e9bafdf	0.30407616
134	0xbe86906a	-0.26282054
135	0x3e4ef1fe	0.202095
136	0xbf5c2e25	-0.8600791
137	0x3f42e34d	0.76128083
138	0xbeac19e3	-0.336135
139	0x3e9ec5fa	0.3101042
140	0x3ea0d0d1	0.31409314
141	0x3f0c2404	0.54742455
142	0x3f260509	0.64851433
143	0xbf0b8ed7	-0.5451483
144	0x3d29ffaa	0.041503586
145	0xbf0b958c	-0.54525065
146	0xbf2820cc	-0.65675044
147	0xbf054fd3	-0.5207493
148	0xbe83e14d	-0.25757828
149	0x3e9a19d5	0.30097833
150	0xbeee434a	-0.46535712
151	0xbdbc0328	-0.091802895
152	0x3ecc6291	0.3991895
153	0xbcebda07	-0.028790487
154	0xbe8be06f	-0.27319667
155	0xbd878dd3	-0.06618848
156	0xbd679bbe	-0.05654501
157	0xbe3307e6	-0.17483482
158	0x3d8cf571	0.06882752
159	0xbe55a8ef	-0.20865224
160	0x3e4dc062	0.2009292
161	0xbdd9e96b	-0.10640224
162	0x3e24a50e	0.16078588
163	0xbf3dcec7	-0.7414364
164	0x3d4efd49	0.05053452
165	0x3f8d42d8	1.1036024
166	0xbf7a009c	-0.9765718
167	0x3ef8ced2	0.4859529
168	0x3f772431	0.965396
169	0xbf823241	-1.0171586
170	0xbe90b35e	-0.28261846
171	0xbcc954e3	-0.02457661
172	0xbd20a509	-0.03921989
173	0x3e5620fb	0.20911019
174	0xbf0b8edb	-0.54514855
175	0xbe42be0b	-0.19017808
176	0xbbcdcc99	-0.0062804935
177	0xbf4585fd	-0.77157575
178	0x3e0f94b3	0.14021568
179	0x3e518823	0.20462088
180	0x3c9547d3	0.018222725
181	0x3e206352	0.15662888
182	0xbe982207	-0.2971346
183	0x3ef21b8a	0.47286636
184	0xbe80d115	-0.25159517
185	0xbd47bc29	-0.048763428
186	0x3f43fe35	0.76559764
187	0xbe1269c7	-0.14298163
188	0x3dbd1d7a	0.09234138
189	0x3d212508	0.039341956
190	0xbb9a99f2	-0.0047180587
191	0x3de0d8e1	0.10978866
192	0xbc61d456	-0.013783535
193	0xbea28ef9	-0.31749704
194	0xbda9155e	-0.082560286
195	0x3d0faa38	0.035074443
196	0xbdc66f21	-0.09689165
197	0x3ddf5fb4	0.10906926
198	0xbe306fa7	-0.17230092
199	0x3d765dc7	0.060148027
200	0x3d41324a	0.0471671
201	0xbd942405	-0.07233433
202	0x3f103867	0.56336063
203	0x3e5b57bf	0.21420191
204	0xbe91ef04	-0.28502667
205	0xbe062607	-0.13100444
206	0xbd0c4737	-0.034247603
207	0x3d4339fa	0.047662713
208	0x3d8713ea	0.06595595
209	0xbee4fb1b	-0.44722828
210	0xbd8b5341	-0.06802989
211	0x3d93eac0	0.072225094
212	0xbe250418	-0.16114843
213	0x3de553aa	0.11197598
214	0x3cc14ff9	0.023597704
215	0xbd577864	-0.052605048
216	0x3e822201	0.25416568
217	0xbf08c851	-0.5343066
218	0x3f2bbd56	0.6708578
219	0x3f06140c	0.5237434
220	0xbe31b456	-0.17353949
221	0x3f2493f6	0.6428827
222	0xbf48049e	-0.78132045
223	0xbfc32f5a	-1.5248826
224	0xbea5e097	-0.3239791
225	0xbe1b0452	-0.15138367
226	0xbe253edd	-0.16137262
227	0x3e153140	0.14569569
228	0xbf332149	-0.69972664
229	0xbf307d47	-0.6894116
230	0xbeeaf696	-0.45891255
231	0x3f11e57c	0.5699079
232	0x3f0d546f	0.5520696
233	0x3f21958f	0.63118833
234	0xbea57970	-0.32319212
235	0x3ecebf37	0.4038026
236	0x3f0b87d5	0.5450414
237	0xbe0737f3	-0.13204937
238	0x3d2f0859	0.04273257
239	0x3eb894c6	0.36051005
240	0xbf2bf0a5	-0.6716407
241	0xbf5cdbf2	-0.8627311
242	0x3d902c1f	0.070396654
243	0xbeb7f059	-0.35925558
244	0xbe5a1be3	-0.212997
245	0xbf3fc3c2	-0.7490808
246	0x3dae3ddf	0.08507895
247	0xbea88f42	-0.32921797
248	0xbf3957d6	-0.7239965
249	0x3f894193	1.0723137
250	0x3fbe2d77	1.4857625
251	0x3f54f352	0.8318378
252	0x3f88a8fd	1.0676571
253	0x3ec867d9	0.3914173
254	0x3f66201c	0.89892745
255	0xbe94bffb	-0.2905272

bias f4 [12]
0	0x3fa85b23	1.3152813
1	0x3fd5cbb6	1.6702793
2	0xbf2debb6	-0.6793779
3	0xbebc330e	-0.36757702
4	0xbf8ea458	-1.1143904
5	0x3ea290fa	0.31751233
6	0xbf35bfd0	-0.7099581
7	0xbf44e859	-0.76917034
8	0xbf44c6c3	-0.76865786
9	0xbe76ef0e	-0.2411463
10	0xbe919cf4	-0.28440058
11	0x3fd2db22	1.6473124

weight f4 [32, 12, 3, 3]
0	0xbf1a7b69	-0.6034456
1	0xbe3a7ec5	-0.18212421
2	0xbb3691fc	-0.002785801
3	0x3e1cca0e	0.15311453
4	0xb9cac7fe	-0.00038677448
5	0x3c568a07	0.013094432
6	0xbe8c4281	-0.27394488
7	0xbe1f001f	-0.1552739
8	0x3ca337da	0.019924093
9	0x3e620190	0.22070909
10	0x3e001577	0.12508188
11	0xbddcf6f2	-0.107892886
12	0xbed32809	-0.41241482
13	0xbe79a7be	-0.24380395
14	0xbf03434b	-0.51274556
15	0xbf1d620f	-0.6147775
16	0xbf26cee7	-0.6515946
17	0xbf4aecac	-0.7926738
18	0xbe8c08ae	-0.27350372
19	0x3dba88f6	0.091081545
20	0xbe5e4dcb	-0.21709363
21	0x3cb250e9	0.021767097
22	0x3e3d2796	0.18472132
23	0xbea7ab24	-0.32747757
24	0xbe6a24de	-0.22865626
25	0x3eb0a39c	0.34499824
26	0xbe236455	-0.15956242
27	0xbe4ee335	-0.2020386
28	0x3dc6835f	0.09693026
29	0x3ee99a95	0.4562575
30	0x3db90f65	0.090361394
31	0x3eafa4dd	0.34305468
32	0x3eee2a3b	0.46516594
33	0xbd539ad0	-0.051661313
34	0xbca8ffc6	-0.020629775
35	0x3e75c03e	0.23999116
36	0x3f4a6536	0.79060686
37	0x3f365f5c	0.71239257
38	0xbe1abf4d	-0.15112038
39	0xbea52c52	-0.32260376
40	0xbdd7c592	-0.105357304
41	0xbecca005	-0.39965835
42	0xbbbc8980	-0.005753696
43	0x3d97daf8	0.07414812
44	0x3eaf1c02	0.34201056
45	0x3e95021c	0.29103172
46	0x3dcd84a0	0.10035062
47	0x3ef010da	0.46887857
48	0x3cbc08d9	0.022953438
49	0x3c71a6f5	0.014749278
50	0x3f030d0c	0.5119178
51	0xbebc93f9	-0.36831644
52	0xbf031701	-0.51206976
53	0xbed5a4ac	-0.41727197
54	0x3e5bad00	0.21452713
55	0x3b5f3c96	0.0034063212
56	0x3d44cab6	0.048044883
57	0x3e44a314	0.19202834
58	0xbcca6854	-0.02470795
59	0x3b98d412	0.0046639526
60	0xbecde76a	-0.40215617
61	0xbea2d16e	-0.31800407
62	0xbe216ddc	-0.15764564
63	0xbe930d6a	-0.28721172
64	0x3d23929f	0.03993475
65	0x3e664e37	0.22490774
66	0x3f217198	0.63063955
67	0xbe9a1be4	-0.30099404
68	0x3dde1c22	0.1084521
69	0xbefa63fe	-0.48904413
70	0xbf1385dc	-0.5762613
71	0xbdcc4ea3	-0.09975936
72	0x3e230137	0.15918432
73	0x3df4c6ee	0.11952005
74	0x3eb71306	0.357567
75	0x3e9a7e0a	0.30174285
76	0xbd5d3673	-0.054007005
77	0xbd9aa0e1	-0.075502165
78	0x3d83d672	0.064373866
79	0xbe638ae6	-0.22220954
80	0xbd2e876c	-0.042609617
81	0xbe1fa4e8	-0.1559025
82	0x3d0e0835	0.034675796
83	0xbe8ea907	-0.27863333
84	0x3d8b45d6	0.068004295
85	0xbceac442	-0.028658036
86	0x3ea2a8e7	0.31769487
87	0x3de67453	0.11252656
88	0x3e690737	0.22756658
89	0x3e0d5f65	0.13805921
90	0x3e9c5fb7	0.30541775
91	0x3d5c480e	0.053779654
92	0x3c5600c8	0.01306171
93	0x3e2ec72f	0.1706817
94	0x3e7ec10f	0.24878334
95	0x3dfb52a8	0.12271625
96	0xbe045a58	-0.12925088
97	0xbdf16c78	-0.11788267
98	0xbe946b69	-0.28988197
99	0x3e600528	0.21876967
100	0xbddc16f7	-0.10746568
101	0xbdccd4ec	-0.10001549
102	0xbe8b79a4	-0.27241242
103	0xbedb6ea6	-0.42857856
104	0x3e7182e2	0.23585084
105	0xbe978006	-0.29589862
106	0xbec4feed	-0.38475743
107	0xbe613091	-0.21991183
108	0x3dbeaaeb	0.09309944
109	0x3eb031c5	0.3441297
110	0x3ebd0c10	0.36923265
111	0xbdc99aba	-0.09843965
112	0x3cf7a82a	0.030231554
113	0x3e0182d0	0.12647557
114	0xbd5f986c	-0.05458872
115	0x3e1379f7	0.14401995
116	0x3eba4305	0.36379257
117	0xbc85ea34	-0.016347028
118	0x3dca8ad5	0.09889761
119	0xbeb2a5cb	-0.34892115
120	0x3d8b6ed6	0.0680825
121	0x3e456c52	0.19279602
122	0xbe298175	-0.1655329
123	0x3a4531e8	0.000752239
124	0x3e284673	0.16433124
125	0x3e1755d9	0.14778842
126	0xbf920ff3	-1.1411117
127	0xbf277d67	-0.65425724
128	0x3b69091a	0.0035558403
129	0xbf394ed0	-0.72385883
130	0x3e263b38	0.16233528
131	0xbd23b7f7	-0.039970364
132	0x3e82647e	0.25467294
133	0x3ec16c03	0.3777772
134	0x3db77094	0.089570194
135	0xbeab225a	-0.33424646
136	0xbe950804	-0.29107678
137	0xbb6308dd	-0.0034642734
138	0xbe4b6838	-0.19863975
139	0xbd4b800a	-0.049682654
140	0xbc65633a	-0.014000708
141	0x3e107062	0.1410537
142	0x3db3dc68	0.087822735
143	0xbe3e3ff8	-0.1857909
144	0xbf101200	-0.56277466
145	0xbeb8ce2d	-0.360948
146	0xbe8af6ba	-0.27141362
147	0x3e14b157	0.14520775
148	0x3e6c9f57	0.23107658
149	0x3e131cd7	0.1436647
150	0xbe023974	-0.12717229
151	0x3e08f694	0.13375312
152	0x3dcfe791	0.1015159
153	0xbe453300	-0.19257736
154	0xbdb6fb0d	-0.08934603
155	0xbd29b0ac	-0.041428253
156	0x3e420958	0.18948877
157	0xbdda3052	-0.106537476
158	0x3e3eb8f7	0.18625246
159	0x3e906929	0.2820523
160	0x3d159855	0.03652223
161	0xbde353a8	-0.110999405
162	0xbf58c0a7	-0.84668964
163	0xbeedb73e	-0.46428865
164	0xbde3348d	-0.11094008
165	0x3d31624a	0.043306626
166	0xbecb1964	-0.3966781
167	0x3cc74c1d	0.024328286
168	0xbd9575dd	-0.07297871
169	0xbd971b28	-0.073782265
170	0x3e908658	0.28227496
171	0xbf6ca2c2	-0.9243585
172	0x3d2aa40c	0.041660354
173	0xbd963696	-0.0733463
174	0xbef51687	-0.4786875
175	0xbeca57ee	-0.3952021
176	0xbd8ddc61	-0.069267996
177	0x3ea900cd	0.33008423
178	0xbd22ffff	-0.03979492
179	0x3e423ef0	0.18969321
180	0xbf17575a	-0.5911766
181	0xbe5c2093	-0.21496801
182	0x3e04fe4e	0.12987635
183	0xbf1ab98d	-0.6043938
184	0x3e38129b	0.17975847
185	0x3dccd8ce	0.1000229
186	0x3e4079b5	0.18796428
187	0x3e8dd3b4	0.2770058
188	0xbd633709	-0.055472407
189	0xbe3e4035	-0.1857918
190	0xbe814aa8	-0.2525227
191	0xbe0a5418	-0.13508642
192	0x3e64998c	0.22324198
193	0x3d75d665	0.060018916
194	0xbe1ddfb2	-0.15417364
195	0x3e373f05	0.17895134
196	0x3d4167dc	0.04721819
197	0x3e83a2c1	0.2571011
198	0xbe28e3db	-0.1649317
199	0x3e8f6418	0.28006053
200	0xbe468505	-0.1938668
201	0xbe69d104	-0.2283364
202	0x3db3812c	0.08764872
203	0xbe10a9e9	-0.14127316
204	0x3c6e38d1	0.014539913
205	0x3cb95eec	0.02262827
206	0x3e035c93	0.12828283
207	0x3f886e26	1.0658615
208	0xbdd88b4a	-0.10573442
209	0x3e50d97f	0.20395468
210	0x3f0744f1	0.5283957
211	0x3dbf74c3	0.093484424
212	0xbd4c8e61	-0.04994047
213	0x3e4bf71c	0.19918483
214	0xbee7b920	-0.45258427
215	0xbd6dccda	-0.05805669
216	0x3f086dce	0.5329255
217	0xbd76ff5a	-0.060302116
218	0xbe94457c	-0.28959262
219	0x3f025e79	0.50925404
220	0x3c0dc730	0.008653447
221	0xbed224d9	-0.41043738
222	0x3ebf85c0	0.3740673
223	0x3deb3352	0.11484398
224	0xbe5e3ca6	-0.21702823
225	0xbeec942b	-0.46206793
226	0x3e1c72d8	0.15278184
227	0x3ea6602e	0.32495254
228	0xbe527c9a	-0.20555344
229	0x3dda4016	0.10656755
230	0x3e8d063e	0.27543825
231	0xbddd8124	-0.10815647
232	0xbc8bfc5f	-0.017088113
233	0x3c065f49	0.008201429
234	0xbecf8a94	-0.40535414
235	0x3d668854	0.056282356
236	0x3d8a0015	0.06738297
237	0x3d1121ce	0.03543263
238	0x3ec2f7e8	0.38079762
239	0x3e8bdc25	0.27316394
240	0x3e79757c	0.24361223
241	0xbe57c4c7	-0.21071158
242	0x3de76760	0.11299014
243	0xbef6c066	-0.48193663
244	0xbee35f4c	-0.44408643
245	0xbf42e715	-0.76133853
246	0x3deeed66	0.11666374
247	0xbda388a8	-0.079850495
248	0xbe2035eb	-0.15645568
249	0xbddff313	-0.109350346
250	0xbd0a8dac	-0.033826515
251	0xbd1a2ca6	-0.037640236
252	0x3bae4136	0.0053178323
253	0xbe966038	-0.29370284
254	0xbea59917	-0.3234336
255	0xbf01a80f	-0.5064706

bias f4 [32]
0	0xbf29c6cf	-0.6631898
1	0x3f36a7ef	0.71349996
2	0xbe416d53	-0.1888936
3	0x3efbb56b	0.49161848
4	0x3da4783a	0.08030744
5	0xbf55c3e1	-0.8350201
6	0xbe96b7ae	-0.2943701
7	0xbe03c989	-0.12869848
8	0xbd87f7d2	-0.06639065
9	0xbf408553	-0.75203437
10	0x3f22d0dc	0.63599944
11	0x3e6030bc	0.2189359
12	0x3f1d7e9e	0.6152133
13	0x3f4d8f2a	0.80296576
14	0x3f2b670c	0.6695411
15	0xbf333b6a	-0.70012534
16	0x3e482a7c	0.19547457
17	0xbd1dc2c2	-0.038515814
18	0xbeae16a6	-0.34001654
19	0xbf36c8e7	-0.714003
20	0xbd72816d	-0.05920546
21	0xbe952ae0	-0.29134274
22	0x3e9a95b7	0.30192348
23	0xbf6533dd	-0.8953226
24	0x3fb8c6f7	1.4435719
25	0xbf455b94	-0.7709286
26	0x3f0d6d76	0.5524515
27	0x3fa8504e	1.3149507
28	0xbe47c163	-0.19507365
29	0xbebbc726	-0.36675376
30	0x3f8ae04a	1.0849698
31	0x3f7dcf65	0.99144584

weight f4 [120, 512]
0	0x3d706c42	0.058696993
1	0x3dc18b44	0.09450391
2	0x3c9da8c0	0.019245505
3	0xbd855d30	-0.06511915
4	0x3df72fa6	0.12069635
5	0x3e2b2cde	0.16716334
6	0x3e205f89	0.15661444
7	0xbe81df79	-0.2536581
8	0xbcdcbebe	-0.026946422
9	0x3dca83e2	0.09888436
10	0x3dd9d019	0.106353946
11	0xbd5c946b	-0.05385248
12	0x3df5708c	0.11984357
13	0x3dc5dcb5	0.09661237
14	0x3e338ea0	0.17534876
15	0xbdc3970d	-0.09550295
16	0x3dc291cb	0.09500464
17	0x3cea66a1	0.02861339
18	0x3e3adec0	0.18249035
19	0xbc3dbb7e	-0.011580346
20	0xbb75a5c7	-0.0037482844
21	0x3dc60cec	0.096704334
22	0x3c3c2591	0.011483566
23	0xbd04ea24	-0.032449856
24	0xbd8abdb7	-0.067744665
25	0xbd60e87c	-0.054909214
26	0xbc9280cd	-0.017883683
27	0xbd818285	-0.06323723
28	0x3e3c8aa8	0.18412268
29	0xbe18b90b	-0.14914338
30	0xbd87f209	-0.066379614
31	0x3d7ad62d	0.06123941
32	0x3cb840ff	0.02249193
33	0x3cd505e0	0.026003778
34	0xbe0e9065	-0.1392227
35	0xbe00642e	-0.12538216
36	0xbe51c17e	-0.20483968
37	0x3ca4fb13	0.020139253
38	0xbe3c880d	-0.18411274
39	0xbda4fe3c	-0.08056304
40	0xbe79f406	-0.24409494
41	0xbe0fbeb1	-0.14037587
42	0xbd6251e8	-0.055253893
43	0xbe509f6b	-0.20373313
44	0xbd3004d8	-0.04297337
45	0xbd103e96	-0.035215937
46	0xbd6deb5c	-0.058085784
47	0xbddd5c44	-0.10808614
48	0x3db7383e	0.08946274
49	0xbda0fa43	-0.07860234
50	0x3e401098	0.1875633
51	0x3eb4bd6e	0.35300773
52	0xbde250c5	-0.11050562
53	0xbe49e33c	-0.1971559
54	0xbdd3b110	-0.10336506
55	0xbddd78c2	-0.10814048
56	0xbe82ca96	-0.25545186
57	0xbba35c46	-0.004985365
58	0xbcf37183	-0.029717213
59	0xbdc26924	-0.0949271
60	0xbdb02620	-0.08601022
61	0x3dc3a77c	0.095534295
62	0xbde8acd0	-0.11361086
63	0x3cb5bebf	0.022185681
64	0x3dec23d7	0.115302734
65	0x3e66dab8	0.22544372
66	0x3dabfa82	0.0839739
67	0x3c072361	0.008248181
68	0x3d7d3f6a	0.061828054
69	0xbe1b028d	-0.15137692
70	0x3ab5dcf9	0.0013875059
71	0x3d8f6cbe	0.07003163
72	0x3d01d089	0.031693015
73	0x3cc7a567	0.024370862
74	0xbe252203	-0.16126256
75	0xbe488417	-0.19581638
76	0xbdc71824	-0.09721401
77	0x3d171db4	0.03689356
78	0xbe0e5169	-0.13898243
79	0xbe67ee9f	-0.2264962
80	0xbb5d6a2c	-0.0033785207
81	0xbd821575	-0.06351749
82	0xbdd3ebe0	-0.10347724
83	0x3e137f22	0.14403966
84	0xbdb759c7	-0.089526705
85	0x3e0f0344	0.1396609
86	0x3e4820c2	0.19543746
87	0xbdf00fbc	-0.11721751
88	0x3aba58b5	0.0014217111
89	0x3e8254cf	0.2545533
90	0x3d46621c	0.04843341
91	0xbdf06456	-0.117378876
92	0xbe7c2000	-0.24621582
93	0xbe50797d	-0.20358844
94	0x3d8c56aa	0.06852467
95	0xbd74d0d3	-0.059769463
96	0xbd90d152	-0.07071175
97	0x3e0ff373	0.14057712
98	0x3e00bdbf	0.12572382
99	0x3ce91124	0.028450556
100	0xbe8e1e78	-0.2775762
101	0xbdd134b3	-0.1021513
102	0x3acae75e	0.001548033
103	0x3e3cdef1	0.1844442
104	0xbc88fa10	-0.016720802
105	0x3e52c2e0	0.20582151
106	0x3c09ca56	0.008410057
107	0x3da7cb9c	0.08193132
108	0x3d0984f2	0.033574052
109	0xbd088753	-0.03333218
110	0xbdc23dd7	-0.09484451
111	0xbd1d5aed	-0.03841679
112	0xbe2fed47	-0.17180358
113	0x3cc58f9f	0.024116335
114	0x3d81ee6a	0.06344302
115	0x3da4f1ee	0.08053957
116	0xbdb88686	-0.09010033
117	0x3c57a3c8	0.013161607
118	0x3e1e368a	0.15450493
119	0xbe17794c	-0.14792365
120	0x3e5ed73c	0.21761793
121	0x3d9a5697	0.07536047
122	0x3e34dfb9	0.17663468
123	0xbde02c20	-0.10945916
124	0xbd7b8324	-0.061404362
125	0xbde12b0e	-0.1099454
126	0x3cde3ada	0.027127672
127	0x3d055998	0.032556146
128	0x3da87e3c	0.08227202
129	0x3d072ab3	0.032999706
130	0xbd63af69	-0.055587206
131	0x3cf36870	0.029712886
132	0x3cced4e9	0.025248008
133	0x3d89f13b	0.06735464
134	0x3e3ee6a2	0.18642667
135	0x3d2c18d9	0.042015884
136	0x3da0f2bb	0.07858797
137	0x3e11c509	0.14235319
138	0xbe3b7475	-0.18306144
139	0xbea86fc2	-0.32897764
140	0xbd162ca9	-0.036663685
141	0xbd05a5a1	-0.03262866
142	0xbdc3520f	-0.09537136
143	0x3d359602	0.04433251
144	0x3d188a8d	0.037241507
145	0x3c358dc7	0.011081166
146	0x3e4af7f1	0.19821145
147	0x3dc56953	0.096392296
148	0x3dbff4fe	0.093729004
149	0x3e271c0a	0.1631929
150	0x3e15f450	0.14643979
151	0x3e774c4b	0.24150197
152	0xbdc28d22	-0.09499575
153	0xbbd6f648	-0.0065601207
154	0x3be0723e	0.006849556
155	0x3e0a5b5c	0.13511413
156	0xbe1a4c61	-0.15068199
157	0x3e6f2261	0.23352958
158	0x3da4c53c	0.08045432
159	0x3d975366	0.07388954
160	0x3dd9b4d4	0.10630193
161	0x3b8b3666	0.004248428
162	0xbc95a938	-0.018269166
163	0x3d1241f2	0.03570742
164	0xbe1c8b9b	-0.1528763
165	0xbdbb1ba8	-0.091361344
166	0xbda1ce10	-0.079006314
167	0xbc6a08a4	-0.014284287
168	0xbe26e429	-0.16297974
169	0x3a0e19f1	0.00054207357
170	0x3e91ff96	0.2851531
171	0x3eb13480	0.34610367
172	0xbc14b1b2	-0.009075569
173	0x3d8cfa61	0.068836935
174	0x3d08ae99	0.033369634
175	0x3e243cfd	0.1603889
176	0xbd1cb7f1	-0.038261358
177	0xbe81aca1	-0.25327018
178	0xbd49431e	-0.049136274
179	0x3ba9b3d8	0.0051789097
180	0xbd6c24b0	-0.057652175
181	0xbe945661	-0.28972152
182	0xbe37d817	-0.17953525
183	0xbc3e1288	-0.011601098
184	0xbe3d0bab	-0.18461482
185	0x3c0236c7	0.00794763
186	0x3cb69868	0.02228947
187	0xbdf19160	-0.11795306
188	0xbee0c6e6	-0.43901747
189	0xbe845b4d	-0.25850907
190	0xbe7bde02	-0.24596408
191	0xbe9cadb5	-0.30601278
192	0xbd3815f7	-0.044942822
193	0xbe2d6c89	-0.16935934
194	0xbd8d8670	-0.069104075
195	0xbdcc4763	-0.099745534
196	0x3e04c8dd	0.12967248
197	0xbe56b679	-0.20968045
198	0x3e1d211c	0.15344661
199	0xbd9fc0e6	-0.07800464
200	0x3dc87835	0.09788553
201	0xbe2237bc	-0.15841573
202	0xbdd56632	-0.10419883
203	0x3d97fd71	0.07421387
204	0xbe1e21a1	-0.15442516
205	0xbdf7453b	-0.120737515
206	0xbe541b54	-0.2071355
207	0x3e34c6a3	0.17653899
208	0xbe138151	-0.14404799
209	0x3ea7aa05	0.32746902
210	0x3e38ab24	0.18034035
211	0xbca0c3bc	-0.019624583
212	0x3c602f61	0.013683171
213	0x3e330994	0.17484123
214	0x3b7ca816	0.0038552335
215	0x3e2114b1	0.1573055
216	0x3cb3678b	0.02189996
217	0xbe5f5e39	-0.21813287
218	0x3e1ee799	0.15518035
219	0xbdf76fda	-0.12081881
220	0x3be89de0	0.0070988983
221	0xbeead34f	-0.4586434
222	0xbe7d143c	-0.2471475
223	0xbd9db151	-0.07699836
224	0x3c7e5455	0.015523036
225	0xbd42d5cb	-0.04756717
226	0xbd9c68c6	-0.076371714
227	0xbe89cf8c	-0.26916158
228	0xbdaeba53	-0.08531632
229	0xbdd00a92	-0.10158266
230	0x3e04e194	0.12976676
231	0x3e4d8f3b	0.2007417
232	0xbdd6df6a	-0.104918316
233	0xbde926dc	-0.11384365
234	0x3e123ea1	0.14281704
235	0x3e18700d	0.14886494
236	0xbe83f396	-0.2577178
237	0xbe9223bd	-0.2854289
238	0xbe3c31ea	-0.18378416
239	0xbdcf008c	-0.10107526
240	0xbc985ba3	-0.018598383
241	0x3ecb0f84	0.39660275
242	0xbce75c48	-0.028242245
243	0xbe4b5e65	-0.19860227
244	0xbab6a5de	-0.001393493
245	0xbe136e29	-0.14397492
246	0xbdd0c61b	-0.101940356
247	0x3ce84e51	0.028357657
248	0x3cf80c72	0.030279372
249	0x3d3f1567	0.04665127
250	0xbc1a9811	-0.0094356695
251	0x3d6b3bc0	0.05743003
252	0x3db11cca	0.08648069
253	0xbcc7be9f	-0.024382887
254	0xbdea64d0	-0.1144501
255	0xbe5f11c9	-0.21784128

bias f4 [120]
0	0x3eddc172	0.4331165
1	0xbde08c9a	-0.109643176
2	0xbd752dc8	-0.059858114
3	0xbddde24c	-0.10834178
4	0xbd39b963	-0.045342814
5	0x3e936b28	0.2879269
6	0xbe465ea8	-0.19372046
7	0x3e9ba067	0.30395815
8	0x3e029642	0.12752631
9	0x3e83933b	0.25698265
10	0xbe1cf0e8	-0.15326273
11	0x3df7a8ca	0.12092741
12	0x3ed0d14b	0.40784678
13	0x3b6994bf	0.0035641638
14	0xbec4c5e4	-0.3843223
15	0xbd8c3c7c	-0.06847474
16	0x3ce30a7c	0.02771496
17	0xbe004713	-0.12527113
18	0xbe4d4e6a	-0.20049444
19	0x3ede776d	0.4345049
20	0xbdb6aff3	-0.089202784
21	0x3e5d0a43	0.21585946
22	0xbb00c3ff	-0.0019648073
23	0xbdbd793b	-0.092516385
24	0x3dab8e41	0.08376742
25	0x3e3176e8	0.17330515
26	0xbe80d3e4	-0.2516166
27	0xbe710d75	-0.2354029
28	0x3eb47d2b	0.35251746
29	0xbce50d86	-0.02796055
30	0x3e92e6ca	0.28691703
31	0x3e2ee103	0.17078023
32	0xbde39fe5	-0.11114482
33	0x3e29166a	0.16512457
34	0xbd4d7bf8	-0.050167054
35	0x3e3f986c	0.18710488
36	0x3d8002bd	0.06250522
37	0x3d8cc853	0.06874146
38	0x3e7faecb	0.24969022
39	0x3c86a078	0.01643394
40	0x3d2a48c1	0.04157329
41	0x3e67c5ed	0.22634096
42	0xbd2b6499	-0.041843984
43	0xbe5be013	-0.21472196
44	0x3e8978b2	0.26849896
45	0x3cdf7214	0.027276076
46	0x3e0b96c0	0.13631725
47	0x3cbaec02	0.022817615
48	0xbe7a59b7	-0.24448286
49	0x3df61b9e	0.12016986
50	0x3e2e2e2e	0.17009804
51	0x3e16faa6	0.14744052
52	0x3c63faac	0.013914745
53	0x3d4a9417	0.049457636
54	0x3d31117a	0.043229558
55	0x3eb784f9	0.35843638
56	0x3ec3343e	0.38125795
57	0x3e7528af	0.23941301
58	0xbd90be65	-0.07067565
59	0x3ea27bc8	0.31735063
60	0xbdd5f927	-0.10447913
61	0x3c426224	0.011864219
62	0xbe3dc828	-0.18533385
63	0x3dd2c83f	0.102921
64	0xbdc7f227	-0.09762984
65	0x3e101df9	0.14073934
66	0xbdc4b85e	-0.09605478
67	0x3e0e7a2b	0.13913791
68	0x3ce27a4c	0.027646206
69	0xbd6a91f4	-0.057268098
70	0x3d8a5a9c	0.067555636
71	0xbd2da0cf	-0.042389687
72	0x3bc9c182	0.006157101
73	0x3e8e99c1	0.2785168
74	0xbcc04c1e	-0.023473796
75	0xbe4ea8ae	-0.20181534
76	0xbd727aea	-0.05919925
77	0x3d394ec5	0.045241136
78	0xbc0b41a0	-0.008499533
79	0x3e63db8c	0.22251719
80	0xbc9550a3	-0.018226927
81	0xbdb02565	-0.086008824
82	0x3e2a1a94	0.16611701
83	0xbdbf6a7b	-0.093464814
84	0x3db21eed	0.08697305
85	0xba3e6a71	-0.0007263786
86	0xbd30d33e	-0.043170206
87	0x3e2d3950	0.16916394
88	0x3ec17bb8	0.37789702
89	0xbd618abe	-0.055063955
90	0xbecf77ff	-0.40521237
91	0x3e84f25f	0.25966164
92	0x3da8c669	0.08240969
93	0x3eb4e1c7	0.35328504
94	0xbcd1b54f	-0.02559915
95	0x3ea74e69	0.3267701
96	0xbdc99f75	-0.09844867
97	0x3d9b9828	0.07597381
98	0xbe03717e	-0.12836263
99	0x3e2ae6ec	0.16689652
100	0xbcce124a	-0.025155205
101	0xbdc44d49	-0.095850535
102	0x3ea83b6b	0.32857832
103	0xbd7f3088	-0.062302142
104	0x3dabb296	0.08383672
105	0xbe3e2cf5	-0.18571837
106	0xbc8ca462	-0.017168228
107	0x3f1ea111	0.6196452
108	0x3d7d781f	0.061882135
109	0x3dabb2f5	0.08383743
110	0xbcd7d0ee	-0.026344743
111	0x3aad5f85	0.001322732
112	0xbd880cb9	-0.06643052
113	0xbe4f2d81	-0.20232202
114	0x3eb121c7	0.34596083
115	0xbe3ea9ff	-0.18619536
116	0x3e30e84f	0.17276119
117	0xbdec96a4	-0.1155217
118	0xbc2f8bdb	-0.0107144965
119	0xbcb25f7a	-0.021774042

weight f4 [84, 120]
0	0xbc9ba78b	-0.01900079
1	0x3d678ca2	0.056530602
2	0xbd8754ce	-0.06607972
3	0x3d8e6644	0.06953099
4	0x3dd3b02a	0.10336335
5	0xbd1aca01	-0.037790302
6	0xbe58e136	-0.21179661
7	0x3dc6a612	0.09699644
8	0x3d80c762	0.06288029
9	0xbda0ac8d	-0.078454114
10	0x3c569cc1	0.0130988965
11	0x3e1c9e37	0.15294729
12	0xbe878271	-0.26466706
13	0x3e684a4b	0.2268459
14	0xbe01a090	-0.12658906
15	0xbdf357db	-0.118819915
16	0x3db5eaff	0.088827126
17	0xbe2b5e26	-0.16735134
18	0x3dbec000	0.09313965
19	0x3d191c6c	0.03738062
20	0x3c810781	0.015750648
21	0x3c4e476a	0.012590269
22	0xbe46e928	-0.1942488
23	0xbd9ec0f1	-0.077516444
24	0x3e0bd64d	0.13655968
25	0xbdbaa454	-0.09113374
26	0x3bf3444e	0.007423914
27	0x3e1b10a7	0.15143071
28	0xbd7b8b22	-0.061411984
29	0xbd6f4463	-0.058414828
30	0x3a9d7823	0.0012013953
31	0xbe256150	-0.16150403
32	0xbd6834ba	-0.05669091
33	0xbd92e6a8	-0.071729004
34	0xbdf361a6	-0.11883859
35	0xbdb70729	-0.089369126
36	0x3dab6355	0.083685555
37	0x3e8642dd	0.26222888
38	0xbe360e1b	-0.17778818
39	0xbddf1adc	-0.10893795
40	0x3e58cd9c	0.21172184
41	0xbdb13550	-0.08652747
42	0xbdf28a66	-0.11842804
43	0xbd38ca1c	-0.04511462
44	0xbd4afb92	-0.049556322
45	0xbe23bbb8	-0.15989578
46	0x3d21b76e	0.039481573
47	0x3dfa1ba8	0.12212306
48	0x3d9fef30	0.07809293
49	0xbde47c70	-0.11156547
50	0xbdb93cce	-0.09044801
51	0xbd9055e7	-0.070476346
52	0xbe3bfc63	-0.18357997
53	0xbd0ba1b5	-0.034089763
54	0x3de68d59	0.11257429
55	0xbe4a715f	-0.1976981
56	0xbc704fb3	-0.014667439
57	0xbe0efaae	-0.13962814
58	0xbded172e	-0.11576687
59	0x3d8108c2	0.063004985
60	0x3e28dff9	0.16491689
61	0xbd9b141d	-0.07572196
62	0xbba4a359	-0.0050243554
63	0x3dd519e5	0.104053296
64	0xbca21477	-0.019785149
65	0x3d987fe4	0.07446268
66	0x3e8a9cc7	0.27072737
67	0xbe1e90eb	-0.1548497
68	0x3dd2a9f0	0.10286319
69	0xbe1f4a7e	-0.1555576
70	0x3d9f566b	0.07780155
71	0x3dc0c030	0.09411657
72	0x3ddc96f0	0.107709765
73	0xbddbab86	-0.10726075
74	0xbe67d719	-0.22640647
75	0x3cfea6c5	0.031085381
76	0xbde5d6e7	-0.1122263
77	0xbd174f4d	-0.03694086
78	0xbd97eee9	-0.07418615
79	0x3c6b6a43	0.0143685965
80	0xbdc3321c	-0.09531042
81	0xbda0e040	-0.07855272
82	0x3da172a0	0.07883191
83	0xbdbcea1f	-0.092243426
84	0xbda273ea	-0.07932265
85	0xbe5bf53d	-0.2148027
86	0xbd7c2741	-0.061560873
87	0x3bd8d3b8	0.0066170357
88	0xbd8ab50a	-0.06772812
89	0x3d9f93b2	0.077918425
90	0xbd113de5	-0.035459418
91	0xbdc00b19	-0.09377117
92	0xbdb9771c	-0.090559214
93	0xbdb2555b	-0.087076865
94	0x3e05b75b	0.13058226
95	0x3d177592	0.03697736
96	0xbe2ac537	-0.16676794
97	0xbc21af3f	-0.009868442
98	0xbd25b9f8	-0.040460557
99	0xbb5a32f0	-0.0033294521
100	0xbde1a50a	-0.11017807
101	0xbb79383c	-0.0038027903
102	0xbe230fce	-0.15923998
103	0xbd9c9aaf	-0.07646691
104	0xbdcc80b1	-0.099854834
105	0x3baae59f	0.0052153612
106	0x3e22f607	0.15914164
107	0x3cb11e64	0.021620937
108	0x3da8beed	0.08239541
109	0xbdd5ffd1	-0.10449184
110	0xbe24f40f	-0.16108726
111	0x3d99b0af	0.07504403
112	0xbb7d1035	-0.0038614396
113	0x3e057f2d	0.13036795
114	0xbe6c6bf1	-0.23088051
115	0x3d1d7625	0.03844275
116	0xbdc510bb	-0.09622332
117	0xbd00164e	-0.03127127
118	0xbd619866	-0.05507698
119	0x3cfef1c3	0.03112114
120	0x3e53ec5b	0.20695631
121	0x3deb267b	0.11481949
122	0x3c7d3eb2	0.015456842
123	0x3c6aa1a4	0.014320765
124	0xbdd35d48	-0.10320526
125	0xbe39a858	-0.18130624
126	0x3d7a8da6	0.061170243
127	0xbe0c0483	-0.13673596
128	0x3e294553	0.16530351
129	0x3d1fb4f6	0.038990937
130	0xbe2c6bd1	-0.16838004
131	0x3b9802c3	0.004639001
132	0xbe4dc7df	-0.20095776
133	0xbd818e37	-0.063259535
134	0x3e1135c6	0.14180669
135	0x3ea7fada	0.32808572
136	0x3d38de6a	0.045133986
137	0xbe1e527c	-0.15461153
138	0xbd921a37	-0.07133906
139	0x3ccd1232	0.02503309
140	0x3e1250c1	0.14288618
141	0xbea122be	-0.3147182
142	0xbe616d42	-0.22014335
143	0xbde78fe8	-0.11306745
144	0x3dc464ae	0.095895156
145	0xbe1f349b	-0.15547411
146	0x3dcc1983	0.099658035
147	0xbecdd1ee	-0.40199226
148	0xbe36cb2e	-0.17850944
149	0x3e443c7c	0.19163698
150	0xbdd67bd7	-0.10472839
151	0xbe843247	-0.2581961
152	0xbda527cf	-0.080642335
153	0x3d90dfed	0.070739605
154	0xbdc620a6	-0.09674196
155	0x3ed19656	0.4093501
156	0x3d8597b1	0.065230735
157	0xbe223372	-0.15839937
158	0xbda793a6	-0.081824586
159	0xbc808e13	-0.015692746
160	0xbd04d579	-0.032430146
161	0x3e0948ef	0.13406728
162	0xbe5830b6	-0.21112332
163	0xbdae1966	-0.08500938
164	0x3a6acd60	0.0008956995
165	0x3da947fe	0.082656845
166	0xbde7524b	-0.11294993
167	0xbe1c77b5	-0.1528004
168	0xbd428172	-0.04748673
169	0x3e540dfa	0.20708457
170	0x3e0b2a23	0.13590293
171	0x3e1eadac	0.15495938
172	0x3df46313	0.119329594
173	0x3e0508b6	0.12991604
174	0xbe92c709	-0.28667477
175	0xbe51f0fe	-0.20502087
176	0x3dafe940	0.08589411
177	0xbd36c4c3	-0.04462124
178	0xbd82057a	-0.06348701
179	0x3db5b2a4	0.088719636
180	0xbd20cbad	-0.03925674
181	0x3b7617a1	0.0037550705
182	0xbde726e7	-0.11286717
183	0xbd8e48af	-0.06947457
184	0x3eae1fa6	0.3400852
185	0xbc0a884f	-0.00845535
186	0xbcf5ebc7	-0.030019654
187	0xbcf9de87	-0.030501617
188	0xbe30f0b7	-0.17279325
189	0xbd00865b	-0.03137813
190	0xbe4d7965	-0.2006584
191	0xbdc9e19a	-0.09857483
192	0xbe5d30e4	-0.21600682
193	0xbe72dd10	-0.23717141
194	0x3dec123d	0.11526916
195	0xbdc7684c	-0.0973669
196	0xbcf4e22f	-0.029893009
197	0x3eac7bab	0.336881
198	0xbe25d9c8	-0.16196358
199	0xbe064e15	-0.13115723
200	0xbd91f555	-0.071268715
201	0xbd763d1b	-0.06011687
202	0x3c8505df	0.016238151
203	0x3d87f39f	0.06638264
204	0x3cd6675d	0.026172334
205	0x3c0d1fcb	0.008613537
206	0xbde7f19b	-0.113253795
207	0x3dfe5346	0.12418227
208	0xbc8d6c0a	-0.017263431
209	0x3dcb8419	0.09937305
210	0xbea9ec26	-0.3318798
211	0xbcbe7ba6	-0.02325232
212	0x3c6b51e3	0.014362785
213	0xbe57b8b4	-0.21066552
214	0xbe146a68	-0.14493716
215	0x3d5ad98e	0.053430133
216	0xbd93f470	-0.07224357
217	0xbe0af51f	-0.13570069
218	0xbdd79d12	-0.10528006
219	0xbdadee6c	-0.08492741
220	0x3dea855f	0.1145122
221	0xbe09d7f4	-0.13461286
222	0xbdfe8efa	-0.12429614
223	0x3d829ecf	0.063779466
224	0xbd6e71ff	-0.058214184
225	0xbdf8bb47	-0.12145095
226	0xbdc947ff	-0.09828185
227	0xbd4931ac	-0.049119636
228	0xbdf8b13e	-0.12143181
229	0x3df04234	0.11731377
230	0x3d5007f2	0.050788827
231	0xbd2b6468	-0.0418438
232	0xbe3ee8e0	-0.18643522
233	0xbde328e0	-0.11091781
234	0xbe847ad0	-0.25874949
235	0xbe77bfb3	-0.24194221
236	0xbcf02834	-0.029316045
237	0xbe17a91c	-0.14810604
238	0xbcf85744	-0.030315049
239	0xbe7c82ac	-0.24659222
240	0xbe037be4	-0.1284023
241	0xbc82b8a8	-0.015957192
242	0xbd06e392	-0.03293187
243	0xbd9000b0	-0.07031381
244	0x3ca8dee2	0.020614091
245	0xbdd5baeb	-0.104360424
246	0xbd977484	-0.073952705
247	0xbc497a12	-0.01229717
248	0x3d7fe159	0.062470768
249	0x3e344e90	0.17608094
250	0xbe512ede	-0.20428035
251	0xbd5fc5d4	-0.054632023
252	0xbd08e401	-0.033420566
253	0x3d22c15f	0.039735194
254	0x3dc4cde9	0.09609587
255	0xbe2b6f74	-0.16741735

bias f4 [84]
0	0xbd09af0c	-0.033614203
1	0xbdb8519a	-0.08999939
2	0xbdd19d21	-0.10235048
3	0x3bca0004	0.0061645526
4	0x3ed2671b	0.41094288
5	0x3f3259c0	0.696682
6	0x3f03763a	0.51352274
7	0x3ecf1ad5	0.4045016
8	0xbce1ccac	-0.027563415
9	0x3e0ce72d	0.13760062
10	0x3e434d4e	0.19072458
11	0x3ef38bce	0.475676
12	0x3eeabb7e	0.4584617
13	0xbe21952e	-0.15779564
14	0xbe14682d	-0.14492865
15	0x3ebea5a4	0.3723575
16	0x3f98af45	1.1928488
17	0xbcf62c56	-0.030050438
18	0x3f16cb8c	0.5890434
19	0xbe2cfcd4	-0.16893321
20	0xbc8bdf3d	-0.017074222
21	0x3e581aa1	0.21103908
22	0x3d833e23	0.06408336
23	0x3c2beb35	0.010493089
24	0x3f07170a	0.5276953
25	0xbd8e4363	-0.06946447
26	0x3d9bb8aa	0.07603581
27	0x3dc11229	0.09427292
28	0x3e87852b	0.26468787
29	0xbe0621db	-0.13098852
30	0x3c50df82	0.012748601
31	0x3f4b37a0	0.7938175
32	0x3d321ba4	0.04348339
33	0x3dc52ebf	0.09628057
34	0x3cc53038	0.024070844
35	0x3f28c87b	0.6593091
36	0x3eb5b107	0.35486624
37	0x3dbf6124	0.093447
38	0xbd99fdec	-0.07519135
39	0x3f7f84d2	0.9981204
40	0x3f0579bb	0.5213887
41	0x3f23ba97	0.6395659
42	0x3e683d4b	0.22679631
43	0xbcc0343b	-0.023462405
44	0x3e9f1d95	0.31077257
45	0x3ed119e5	0.40840068
46	0x3e191ded	0.14952822
47	0x3e5ee6b8	0.217677
48	0xbd325e1f	-0.043546792
49	0x3dcec85a	0.10096808
50	0xbe193015	-0.14959748
51	0xbe097f27	-0.13427411
52	0xbea32bb8	-0.31869292
53	0x3ec9836c	0.3935808
54	0x3ed0dce3	0.40793523
55	0x3e1e1fd7	0.15441833
56	0xbd0c96bc	-0.03432344
57	0x3e738b7a	0.23783675
58	0x39eacef6	0.00044786156
59	0x3e08718f	0.13324569
60	0x3f137db8	0.57613707
61	0xbd5a74d6	-0.05333408
62	0x3ea39870	0.31952238
63	0x3d33c53f	0.04388928
64	0x3e84a1bc	0.25904644
65	0x3ed02608	0.40654016
66	0x3e2adc71	0.16685654
67	0xbcbafca0	-0.02282554
68	0x3e3ddf65	0.1854225
69	0x3e9f5759	0.31121328
70	0xbe73c87a	-0.23806944
71	0x3dcf1dd2	0.1011311
72	0x3d7b7da1	0.061399106
73	0x3d3c484d	0.04596739
74	0x3e3d3748	0.1847812
75	0xbddbf559	-0.10740156
76	0xbc31b02f	-0.010845228
77	0x3ec18598	0.37797236
78	0x3f30174b	0.6878554
79	0x3ea8e501	0.32987216
80	0x3efe56db	0.4967564
81	0x3eceecc9	0.40415028
82	0x3bf93364	0.007605003
83	0x3f10c37c	0.56548285

weight f4 [10, 84]
0	0xbd8d1939	-0.068895765
1	0x3de63f0d	0.11242495
2	0x3c9515b8	0.018198833
3	0xbbf34618	-0.0074241273
4	0x3dfe63e3	0.12421396
5	0xbe222cb9	-0.15837373
6	0x3e1109ff	0.1416397
7	0xbe085d16	-0.1331676
8	0x3d7fa670	0.062414587
9	0xbe6371b5	-0.22211345
10	0x3daca495	0.08429829
11	0xbe77e2a7	-0.24207555
12	0xbe5b9b34	-0.21445924
13	0x3e267800	0.16256714
14	0x3e259a46	0.16172132
15	0x3e85a8a8	0.26105237
16	0x3dcb3c18	0.09923571
17	0x3dbb50c8	0.09146267
18	0x3e4faadc	0.20280021
19	0x3dd514c3	0.104043506
20	0xbd60e8d7	-0.054909553
21	0xbc54face	-0.01299925
22	0x3db477b1	0.08811892
23	0x3e21c77a	0.1579875
24	0x3ca96790	0.020679265
25	0xbcaea4ae	-0.02131876
26	0x3e4d4960	0.20047522
27	0xbdd0aea8	-0.10189563
28	0xbdef40fb	-0.11682316
29	0x3db8c404	0.09021762
30	0x3d7ece1d	0.062208284
31	0xbe12b4a8	-0.14326727
32	0x3e5d17f7	0.21591173
33	0x3e7af669	0.2450806
34	0x3e16a896	0.14712748
35	0xbd220faf	-0.03956574
36	0x3dc372ec	0.09543404
37	0x3e4288f2	0.18997553
38	0xbdc3afc9	-0.09555013
39	0xbead91f3	-0.33900413
40	0xbd9fe0cb	-0.07806548
41	0xbe38e954	-0.18057758
42	0x3d725dbd	0.059171427
43	0x3d8a0fb5	0.06741277
44	0xbd93e42e	-0.07221256
45	0x3b7856cb	0.003789353
46	0x3c225fb9	0.009910517
47	0x3e27ae7f	0.16375159
48	0xbe18be88	-0.14916432
49	0xbdafdda7	-0.08587199
50	0x3d27f2b8	0.04100296
51	0x3e5aef38	0.21380317
52	0x3df2b507	0.118509345
53	0xbc58fc0a	-0.013243685
54	0xba9df9f4	-0.0012052641
55	0x3dc2f3ca	0.09519155
56	0x3d6d6e4c	0.057966515
57	0xbd9915fc	-0.07474896
58	0x3ddb8983	0.10719588
59	0x3e863525	0.2621242
60	0xbe99bbcb	-0.30026087
61	0x3e24b2ad	0.16083784
62	0xbd26e136	-0.04074212
63	0x3d28ee7b	0.041243058
64	0x3dc91a60	0.09819484
65	0xbce8c705	-0.028415212
66	0x3e4796c0	0.194911
67	0x3e020fc3	0.12701325
68	0x3e0095e3	0.12557177
69	0xbd8f7713	-0.070051335
70	0x3d27d8c4	0.04097821
71	0xbe47c496	-0.19508585
72	0x3de6a542	0.11261989
73	0x3e3c011e	0.18359801
74	0xbd3b0eb8	-0.045668334
75	0x3dc6a1d0	0.09698832
76	0x3d57f647	0.052725103
77	0xbdb858c2	-0.09001304
78	0xbed82642	-0.42216688
79	0xbe18ac7a	-0.14909545
80	0x3d2bbee1	0.041930083
81	0x3dcf999e	0.10136722
82	0xbc020398	-0.007935427
83	0xbd31efcf	-0.04344159
84	0x3e286d87	0.16448031
85	0xbe040a88	-0.12894642
86	0xbc187bd3	-0.009306866
87	0xbe04f14c	-0.12982672
88	0xbebff674	-0.37492716
89	0xbdcf16f3	-0.10111799
90	0xbec11c27	-0.3771679
91	0x3e3494ce	0.1763489
92	0xbce67e3d	-0.028136367
93	0x3e21ba20	0.15793657
94	0x3e8ba72f	0.27275988
95	0xbdcf477d	-0.10121057
96	0xbe1cfbd1	-0.15330435
97	0x3e826969	0.25471047
98	0xbdbb3cf7	-0.091424875
99	0x3e87938d	0.2647976
100	0xbeddf1ef	-0.43348643
101	0x3d80ba82	0.062855735
102	0x3d995bab	0.074881874
103	0x3d92b10d	0.07162676
104	0x3e2087fb	0.15676872
105	0x3db2caa7	0.08730059
106	0x3e8d4bf8	0.27597022
107	0x3d91813e	0.07104729
108	0xbdc289da	-0.09498949
109	0x3e2c2ebe	0.16814706
110	0xbd1e2d51	-0.038617436
111	0x3e0c8dd2	0.13725975
112	0xbd1e1962	-0.038598426
113	0x3d916216	0.070987865
114	0x3e79370a	0.24337402
115	0xbc116b0d	-0.008875621
116	0x3db3f623	0.08787181
117	0xbcf21129	-0.029549198
118	0x3d231cf5	0.039822537
119	0xbd92e4a0	-0.07172513
120	0xbe0252c9	-0.12726893
121	0xbe8de8e0	-0.27716732
122	0x3e11cc2d	0.14238043
123	0xbd9945df	-0.0748403
124	0x3e84099d	0.25788584
125	0x3d113602	0.035451896
126	0xbecf1a74	-0.4044987
127	0xbc73c90e	-0.014879478
128	0xbc6635ab	-0.014050881
129	0xbd5873ae	-0.052844696
130	0xbe10a5ee	-0.14125797
131	0x3d2db3e0	0.04240787
132	0x3cac5421	0.02103621
133	0xbd8cde2a	-0.06878312
134	0xbe8e2779	-0.2776449
135	0xba011c2a	-0.0004925156
136	0xbda87e11	-0.0822717
137	0x3e8aa347	0.27077696
138	0xbe816f66	-0.25280303
139	0x3e0ac13a	0.13550273
140	0xbe486823	-0.19570975
141	0x3c8dc40a	0.017305393
142	0x3d8b96a8	0.06815845
143	0xbe881fb5	-0.2658669
144	0x3dada7e4	0.08479288
145	0x3df47953	0.11937203
146	0xbe239352	-0.15974167
147	0x3e16e923	0.14737372
148	0x3e7d8fbd	0.24761863
149	0xbd927acd	-0.07152329
150	0x3cdbf6fd	0.026851172
151	0x3c92d71f	0.017924843
152	0xbb4004cd	-0.0029299736
153	0x3e2e430c	0.17017764
154	0xbe6962d5	-0.22791608
155	0x3e2b92dd	0.16755243
156	0x39eb8360	0.00044920575
157	0x3e8552b3	0.26039657
158	0x3e36fecc	0.17870635
159	0x3d1ff76a	0.03905431
160	0x3e262baf	0.16227601
161	0xbea25325	-0.3170406
162	0xbee9fe3a	-0.45701772
163	0xbe2f96cc	-0.17147368
164	0x3db0d541	0.08634425
165	0x3bab5163	0.005228208
166	0x3da598d8	0.08085793
167	0xbe04b9d9	-0.1296152
168	0x3d2df961	0.042474154
169	0xbe16da77	-0.14731775
170	0xbd735407	-0.059406307
171	0x3e199c89	0.1500112
172	0x3e2ef453	0.1708539
173	0x3e07de13	0.13268308
174	0x3cc1bfa9	0.023650961
175	0x3e1eff24	0.15527016
176	0x3e515ef4	0.20446378
177	0xbc53dd7c	-0.012931224
178	0xbd9b33dc	-0.07578251
179	0x3e3aabbd	0.18229575
180	0x3e34a3b4	0.17640573
181	0xbdb55aa5	-0.0885518
182	0x3e30b39b	0.17256014
183	0xbe0718d2	-0.13193062
184	0x3da95f5e	0.08270143
185	0xbd39b75b	-0.045340877
186	0xbde123c6	-0.10993151
187	0x3d828256	0.06372516
188	0x3d103c92	0.035214014
189	0x3dcb3c19	0.09923572
190	0xbe0dbd22	-0.1384168
191	0x3e28a65e	0.16469714
192	0x3d24fa89	0.04027799
193	0x3a0fda29	0.00054875255
194	0xbdbd4658	-0.09241933
195	0xbe501c75	-0.20323355
196	0x3e12ad1f	0.14323853
197	0xbc2c24c2	-0.010506811
198	0x3e11b48d	0.14229031
199	0x3d9cea32	0.07661857
200	0xbd23de18	-0.040006727
201	0x3d83ff2a	0.06445153
202	0xbcd75314	-0.026284732
203	0x3e217a26	0.15769252
204	0xbe0eb165	-0.13934858
205	0x3d84b2e1	0.06479431
206	0xbd6b85c3	-0.057500612
207	0x3e5594bc	0.20857519
208	0xbdd51a76	-0.10405438
209	0xbdb2969a	-0.08720131
210	0x3e97a201	0.29615787
211	0x3df56c12	0.119835034
212	0xbeb261ae	-0.3484015
213	0xbd4940c8	-0.049134046
214	0x3d8c3a0e	0.068470106
215	0x3df53908	0.119737685
216	0x3e25f072	0.16205004
217	0x3c9f9696	0.019480985
218	0x3e54a9ee	0.20767948
219	0x3d572d4e	0.05253344
220	0x3e020588	0.12697423
221	0xbe4c038b	-0.19923227
222	0xbc4d290d	-0.012521994
223	0x3cee63bf	0.029100297
224	0xbe029632	-0.12752607
225	0x3df788b6	0.120866224
226	0x3e5e809d	0.2172875
227	0x3e109273	0.14118366
228	0xbe00dfb1	-0.12585331
229	0xbdc19744	-0.0945268
230	0xbc79921b	-0.015232588
231	0xbd3221f0	-0.043489397
232	0xbe3eff0c	-0.1865198
233	0x3d33be99	0.04388294
234	0x3e4adf82	0.19811824
235	0xbd1556df	-0.0364598
236	0x3e20ca2f	0.15702127
237	0xbe17a316	-0.14808306
238	0x3e57f019	0.21087684
239	0x3e8ac10f	0.27100417
240	0x3d734156	0.05938848
241	0x3cf99f55	0.030471483
242	0x3d8c512c	0.0685142
243	0x3d8509f3	0.06496038
244	0xbd9b9716	-0.07597177
245	0xbd3885cd	-0.045049477
246	0x3e5b6eff	0.2142906
247	0x3e209794	0.15682822
248	0x3d1a9d6b	0.03774778
249	0x3d926c2d	0.07149539
250	0x3d4276be	0.047476523
251	0xbc50ea63	-0.012751195
252	0x3e0ba605	0.1363755
253	0xbdde2ca7	-0.108483605
254	0x3dae2be2	0.08504464
255	0xbd2662e5	-0.040621657

bias f4 [10]
0	0xbf0a3b03	-0.53996295
1	0xbf5ad848	-0.8548627
2	0xbe8079fb	-0.25093064
3	0x3f49e947	0.7887158
4	0x3f4ff345	0.81230575
5	0x3e899b72	0.26876408
6	0x3dab02c2	0.083501354
7	0xbea06dfc	-0.3133391
8	0x3ddf02fc	0.10889241
9	0xbe095b2d	-0.13413687
